{"format": "graph-model", "generatedBy": "2.19.0", "convertedBy": "TensorFlow.js Converter v4.22.0", "signature": {"inputs": {"inputs": {"name": "inputs:0", "dtype": "DT_FLOAT", "tensorShape": {"dim": [{"size": "-1"}, {"size": "224"}, {"size": "224"}, {"size": "3"}]}}}, "outputs": {"output_0": {"name": "Identity:0", "dtype": "DT_FLOAT", "tensorShape": {"dim": [{"size": "-1"}, {"size": "1"}]}}}}, "modelTopology": {"node": [{"name": "StatefulPartitionedCall/functional_1_1/conv5_block1_0_conv_1/convolution/merged_input", "op": "Const", "attr": {"value": {"tensor": {"dtype": "DT_FLOAT", "tensorShape": {"dim": [{"size": "1"}, {"size": "1"}, {"size": "1024"}, {"size": "2048"}]}}}, "dtype": {"type": "DT_FLOAT"}}}, {"name": "StatefulPartitionedCall/functional_1_1/conv5_block1_0_bn_1/batchnorm/sub", "op": "Const", "attr": {"value": {"tensor": {"dtype": "DT_FLOAT", "tensorShape": {"dim": [{"size": "1"}, {"size": "1"}, {"size": "1"}, {"size": "2048"}]}}}, "dtype": {"type": "DT_FLOAT"}}}, {"name": "StatefulPartitionedCall/functional_1_1/conv4_block1_0_conv_1/convolution/merged_input", "op": "Const", "attr": {"value": {"tensor": {"dtype": "DT_FLOAT", "tensorShape": {"dim": [{"size": "1"}, {"size": "1"}, {"size": "512"}, {"size": "1024"}]}}}, "dtype": {"type": "DT_FLOAT"}}}, {"name": "StatefulPartitionedCall/functional_1_1/conv4_block1_0_bn_1/batchnorm/sub", "op": "Const", "attr": {"value": {"tensor": {"dtype": "DT_FLOAT", "tensorShape": {"dim": [{"size": "1"}, {"size": "1"}, {"size": "1"}, {"size": "1024"}]}}}, "dtype": {"type": "DT_FLOAT"}}}, {"name": "StatefulPartitionedCall/functional_1_1/conv3_block1_0_conv_1/convolution/merged_input", "op": "Const", "attr": {"value": {"tensor": {"dtype": "DT_FLOAT", "tensorShape": {"dim": [{"size": "1"}, {"size": "1"}, {"size": "256"}, {"size": "512"}]}}}, "dtype": {"type": "DT_FLOAT"}}}, {"name": "StatefulPartitionedCall/functional_1_1/conv3_block1_0_bn_1/batchnorm/sub", "op": "Const", "attr": {"value": {"tensor": {"dtype": "DT_FLOAT", "tensorShape": {"dim": [{"size": "1"}, {"size": "1"}, {"size": "1"}, {"size": "512"}]}}}, "dtype": {"type": "DT_FLOAT"}}}, {"name": "StatefulPartitionedCall/functional_1_1/conv2_block1_0_conv_1/convolution/merged_input", "op": "Const", "attr": {"value": {"tensor": {"dtype": "DT_FLOAT", "tensorShape": {"dim": [{"size": "1"}, {"size": "1"}, {"size": "64"}, {"size": "256"}]}}}, "dtype": {"type": "DT_FLOAT"}}}, {"name": "StatefulPartitionedCall/functional_1_1/conv2_block1_0_bn_1/batchnorm/sub", "op": "Const", "attr": {"value": {"tensor": {"dtype": "DT_FLOAT", "tensorShape": {"dim": [{"size": "1"}, {"size": "1"}, {"size": "1"}, {"size": "256"}]}}}, "dtype": {"type": "DT_FLOAT"}}}, {"name": "StatefulPartitionedCall/functional_1_1/conv1_pad_1/Const", "op": "Const", "attr": {"value": {"tensor": {"dtype": "DT_INT32", "tensorShape": {"dim": [{"size": "4"}, {"size": "2"}]}}}, "dtype": {"type": "DT_INT32"}}}, {"name": "StatefulPartitionedCall/functional_1_1/conv1_conv_1/convolution/ReadVariableOp", "op": "Const", "attr": {"value": {"tensor": {"dtype": "DT_FLOAT", "tensorShape": {"dim": [{"size": "7"}, {"size": "7"}, {"size": "3"}, {"size": "64"}]}}}, "dtype": {"type": "DT_FLOAT"}}}, {"name": "StatefulPartitionedCall/functional_1_1/conv1_conv_1/Squeeze", "op": "Const", "attr": {"value": {"tensor": {"dtype": "DT_FLOAT", "tensorShape": {"dim": [{"size": "64"}]}}}, "dtype": {"type": "DT_FLOAT"}}}, {"name": "StatefulPartitionedCall/functional_1_1/conv1_bn_1/batchnorm/mul", "op": "Const", "attr": {"value": {"tensor": {"dtype": "DT_FLOAT", "tensorShape": {"dim": [{"size": "1"}, {"size": "1"}, {"size": "1"}, {"size": "64"}]}}}, "dtype": {"type": "DT_FLOAT"}}}, {"name": "StatefulPartitionedCall/functional_1_1/conv1_bn_1/batchnorm/sub", "op": "Const", "attr": {"value": {"tensor": {"dtype": "DT_FLOAT", "tensorShape": {"dim": [{"size": "1"}, {"size": "1"}, {"size": "1"}, {"size": "64"}]}}}, "dtype": {"type": "DT_FLOAT"}}}, {"name": "StatefulPartitionedCall/functional_1_1/pool1_pad_1/Const", "op": "Const", "attr": {"value": {"tensor": {"dtype": "DT_INT32", "tensorShape": {"dim": [{"size": "4"}, {"size": "2"}]}}}, "dtype": {"type": "DT_INT32"}}}, {"name": "StatefulPartitionedCall/functional_1_1/conv2_block1_1_conv_1/convolution/merged_input", "op": "Const", "attr": {"value": {"tensor": {"dtype": "DT_FLOAT", "tensorShape": {"dim": [{"size": "1"}, {"size": "1"}, {"size": "64"}, {"size": "64"}]}}}, "dtype": {"type": "DT_FLOAT"}}}, {"name": "StatefulPartitionedCall/functional_1_1/conv2_block1_1_bn_1/batchnorm/sub", "op": "Const", "attr": {"value": {"tensor": {"dtype": "DT_FLOAT", "tensorShape": {"dim": [{"size": "1"}, {"size": "1"}, {"size": "1"}, {"size": "64"}]}}}, "dtype": {"type": "DT_FLOAT"}}}, {"name": "StatefulPartitionedCall/functional_1_1/conv2_block1_2_conv_1/convolution/merged_input", "op": "Const", "attr": {"value": {"tensor": {"dtype": "DT_FLOAT", "tensorShape": {"dim": [{"size": "3"}, {"size": "3"}, {"size": "64"}, {"size": "64"}]}}}, "dtype": {"type": "DT_FLOAT"}}}, {"name": "StatefulPartitionedCall/functional_1_1/conv2_block1_2_bn_1/batchnorm/sub", "op": "Const", "attr": {"value": {"tensor": {"dtype": "DT_FLOAT", "tensorShape": {"dim": [{"size": "1"}, {"size": "1"}, {"size": "1"}, {"size": "64"}]}}}, "dtype": {"type": "DT_FLOAT"}}}, {"name": "StatefulPartitionedCall/functional_1_1/conv2_block1_3_conv_1/convolution/merged_input", "op": "Const", "attr": {"value": {"tensor": {"dtype": "DT_FLOAT", "tensorShape": {"dim": [{"size": "1"}, {"size": "1"}, {"size": "64"}, {"size": "256"}]}}}, "dtype": {"type": "DT_FLOAT"}}}, {"name": "StatefulPartitionedCall/functional_1_1/conv2_block1_3_bn_1/batchnorm/sub", "op": "Const", "attr": {"value": {"tensor": {"dtype": "DT_FLOAT", "tensorShape": {"dim": [{"size": "1"}, {"size": "1"}, {"size": "1"}, {"size": "256"}]}}}, "dtype": {"type": "DT_FLOAT"}}}, {"name": "StatefulPartitionedCall/functional_1_1/conv2_block2_1_conv_1/convolution/merged_input", "op": "Const", "attr": {"value": {"tensor": {"dtype": "DT_FLOAT", "tensorShape": {"dim": [{"size": "1"}, {"size": "1"}, {"size": "256"}, {"size": "64"}]}}}, "dtype": {"type": "DT_FLOAT"}}}, {"name": "StatefulPartitionedCall/functional_1_1/conv2_block2_1_bn_1/batchnorm/sub", "op": "Const", "attr": {"value": {"tensor": {"dtype": "DT_FLOAT", "tensorShape": {"dim": [{"size": "1"}, {"size": "1"}, {"size": "1"}, {"size": "64"}]}}}, "dtype": {"type": "DT_FLOAT"}}}, {"name": "StatefulPartitionedCall/functional_1_1/conv2_block2_2_conv_1/convolution/merged_input", "op": "Const", "attr": {"value": {"tensor": {"dtype": "DT_FLOAT", "tensorShape": {"dim": [{"size": "3"}, {"size": "3"}, {"size": "64"}, {"size": "64"}]}}}, "dtype": {"type": "DT_FLOAT"}}}, {"name": "StatefulPartitionedCall/functional_1_1/conv2_block2_2_bn_1/batchnorm/sub", "op": "Const", "attr": {"value": {"tensor": {"dtype": "DT_FLOAT", "tensorShape": {"dim": [{"size": "1"}, {"size": "1"}, {"size": "1"}, {"size": "64"}]}}}, "dtype": {"type": "DT_FLOAT"}}}, {"name": "StatefulPartitionedCall/functional_1_1/conv2_block2_3_conv_1/convolution/merged_input", "op": "Const", "attr": {"value": {"tensor": {"dtype": "DT_FLOAT", "tensorShape": {"dim": [{"size": "1"}, {"size": "1"}, {"size": "64"}, {"size": "256"}]}}}, "dtype": {"type": "DT_FLOAT"}}}, {"name": "StatefulPartitionedCall/functional_1_1/conv2_block2_3_bn_1/batchnorm/sub", "op": "Const", "attr": {"value": {"tensor": {"dtype": "DT_FLOAT", "tensorShape": {"dim": [{"size": "1"}, {"size": "1"}, {"size": "1"}, {"size": "256"}]}}}, "dtype": {"type": "DT_FLOAT"}}}, {"name": "StatefulPartitionedCall/functional_1_1/conv2_block3_1_conv_1/convolution/merged_input", "op": "Const", "attr": {"value": {"tensor": {"dtype": "DT_FLOAT", "tensorShape": {"dim": [{"size": "1"}, {"size": "1"}, {"size": "256"}, {"size": "64"}]}}}, "dtype": {"type": "DT_FLOAT"}}}, {"name": "StatefulPartitionedCall/functional_1_1/conv2_block3_1_bn_1/batchnorm/sub", "op": "Const", "attr": {"value": {"tensor": {"dtype": "DT_FLOAT", "tensorShape": {"dim": [{"size": "1"}, {"size": "1"}, {"size": "1"}, {"size": "64"}]}}}, "dtype": {"type": "DT_FLOAT"}}}, {"name": "StatefulPartitionedCall/functional_1_1/conv2_block3_2_conv_1/convolution/merged_input", "op": "Const", "attr": {"value": {"tensor": {"dtype": "DT_FLOAT", "tensorShape": {"dim": [{"size": "3"}, {"size": "3"}, {"size": "64"}, {"size": "64"}]}}}, "dtype": {"type": "DT_FLOAT"}}}, {"name": "StatefulPartitionedCall/functional_1_1/conv2_block3_2_bn_1/batchnorm/sub", "op": "Const", "attr": {"value": {"tensor": {"dtype": "DT_FLOAT", "tensorShape": {"dim": [{"size": "1"}, {"size": "1"}, {"size": "1"}, {"size": "64"}]}}}, "dtype": {"type": "DT_FLOAT"}}}, {"name": "StatefulPartitionedCall/functional_1_1/conv2_block3_3_conv_1/convolution/merged_input", "op": "Const", "attr": {"value": {"tensor": {"dtype": "DT_FLOAT", "tensorShape": {"dim": [{"size": "1"}, {"size": "1"}, {"size": "64"}, {"size": "256"}]}}}, "dtype": {"type": "DT_FLOAT"}}}, {"name": "StatefulPartitionedCall/functional_1_1/conv2_block3_3_bn_1/batchnorm/sub", "op": "Const", "attr": {"value": {"tensor": {"dtype": "DT_FLOAT", "tensorShape": {"dim": [{"size": "1"}, {"size": "1"}, {"size": "1"}, {"size": "256"}]}}}, "dtype": {"type": "DT_FLOAT"}}}, {"name": "StatefulPartitionedCall/functional_1_1/conv3_block1_1_conv_1/convolution/merged_input", "op": "Const", "attr": {"value": {"tensor": {"dtype": "DT_FLOAT", "tensorShape": {"dim": [{"size": "1"}, {"size": "1"}, {"size": "256"}, {"size": "128"}]}}}, "dtype": {"type": "DT_FLOAT"}}}, {"name": "StatefulPartitionedCall/functional_1_1/conv3_block1_1_bn_1/batchnorm/sub", "op": "Const", "attr": {"value": {"tensor": {"dtype": "DT_FLOAT", "tensorShape": {"dim": [{"size": "1"}, {"size": "1"}, {"size": "1"}, {"size": "128"}]}}}, "dtype": {"type": "DT_FLOAT"}}}, {"name": "StatefulPartitionedCall/functional_1_1/conv3_block1_2_conv_1/convolution/merged_input", "op": "Const", "attr": {"value": {"tensor": {"dtype": "DT_FLOAT", "tensorShape": {"dim": [{"size": "3"}, {"size": "3"}, {"size": "128"}, {"size": "128"}]}}}, "dtype": {"type": "DT_FLOAT"}}}, {"name": "StatefulPartitionedCall/functional_1_1/conv3_block1_2_bn_1/batchnorm/sub", "op": "Const", "attr": {"value": {"tensor": {"dtype": "DT_FLOAT", "tensorShape": {"dim": [{"size": "1"}, {"size": "1"}, {"size": "1"}, {"size": "128"}]}}}, "dtype": {"type": "DT_FLOAT"}}}, {"name": "StatefulPartitionedCall/functional_1_1/conv3_block1_3_conv_1/convolution/merged_input", "op": "Const", "attr": {"value": {"tensor": {"dtype": "DT_FLOAT", "tensorShape": {"dim": [{"size": "1"}, {"size": "1"}, {"size": "128"}, {"size": "512"}]}}}, "dtype": {"type": "DT_FLOAT"}}}, {"name": "StatefulPartitionedCall/functional_1_1/conv3_block1_3_bn_1/batchnorm/sub", "op": "Const", "attr": {"value": {"tensor": {"dtype": "DT_FLOAT", "tensorShape": {"dim": [{"size": "1"}, {"size": "1"}, {"size": "1"}, {"size": "512"}]}}}, "dtype": {"type": "DT_FLOAT"}}}, {"name": "StatefulPartitionedCall/functional_1_1/conv3_block2_1_conv_1/convolution/merged_input", "op": "Const", "attr": {"value": {"tensor": {"dtype": "DT_FLOAT", "tensorShape": {"dim": [{"size": "1"}, {"size": "1"}, {"size": "512"}, {"size": "128"}]}}}, "dtype": {"type": "DT_FLOAT"}}}, {"name": "StatefulPartitionedCall/functional_1_1/conv3_block2_1_bn_1/batchnorm/sub", "op": "Const", "attr": {"value": {"tensor": {"dtype": "DT_FLOAT", "tensorShape": {"dim": [{"size": "1"}, {"size": "1"}, {"size": "1"}, {"size": "128"}]}}}, "dtype": {"type": "DT_FLOAT"}}}, {"name": "StatefulPartitionedCall/functional_1_1/conv3_block2_2_conv_1/convolution/merged_input", "op": "Const", "attr": {"value": {"tensor": {"dtype": "DT_FLOAT", "tensorShape": {"dim": [{"size": "3"}, {"size": "3"}, {"size": "128"}, {"size": "128"}]}}}, "dtype": {"type": "DT_FLOAT"}}}, {"name": "StatefulPartitionedCall/functional_1_1/conv3_block2_2_bn_1/batchnorm/sub", "op": "Const", "attr": {"value": {"tensor": {"dtype": "DT_FLOAT", "tensorShape": {"dim": [{"size": "1"}, {"size": "1"}, {"size": "1"}, {"size": "128"}]}}}, "dtype": {"type": "DT_FLOAT"}}}, {"name": "StatefulPartitionedCall/functional_1_1/conv3_block2_3_conv_1/convolution/merged_input", "op": "Const", "attr": {"value": {"tensor": {"dtype": "DT_FLOAT", "tensorShape": {"dim": [{"size": "1"}, {"size": "1"}, {"size": "128"}, {"size": "512"}]}}}, "dtype": {"type": "DT_FLOAT"}}}, {"name": "StatefulPartitionedCall/functional_1_1/conv3_block2_3_bn_1/batchnorm/sub", "op": "Const", "attr": {"value": {"tensor": {"dtype": "DT_FLOAT", "tensorShape": {"dim": [{"size": "1"}, {"size": "1"}, {"size": "1"}, {"size": "512"}]}}}, "dtype": {"type": "DT_FLOAT"}}}, {"name": "StatefulPartitionedCall/functional_1_1/conv3_block3_1_conv_1/convolution/merged_input", "op": "Const", "attr": {"value": {"tensor": {"dtype": "DT_FLOAT", "tensorShape": {"dim": [{"size": "1"}, {"size": "1"}, {"size": "512"}, {"size": "128"}]}}}, "dtype": {"type": "DT_FLOAT"}}}, {"name": "StatefulPartitionedCall/functional_1_1/conv3_block3_1_bn_1/batchnorm/sub", "op": "Const", "attr": {"value": {"tensor": {"dtype": "DT_FLOAT", "tensorShape": {"dim": [{"size": "1"}, {"size": "1"}, {"size": "1"}, {"size": "128"}]}}}, "dtype": {"type": "DT_FLOAT"}}}, {"name": "StatefulPartitionedCall/functional_1_1/conv3_block3_2_conv_1/convolution/merged_input", "op": "Const", "attr": {"value": {"tensor": {"dtype": "DT_FLOAT", "tensorShape": {"dim": [{"size": "3"}, {"size": "3"}, {"size": "128"}, {"size": "128"}]}}}, "dtype": {"type": "DT_FLOAT"}}}, {"name": "StatefulPartitionedCall/functional_1_1/conv3_block3_2_bn_1/batchnorm/sub", "op": "Const", "attr": {"value": {"tensor": {"dtype": "DT_FLOAT", "tensorShape": {"dim": [{"size": "1"}, {"size": "1"}, {"size": "1"}, {"size": "128"}]}}}, "dtype": {"type": "DT_FLOAT"}}}, {"name": "StatefulPartitionedCall/functional_1_1/conv3_block3_3_conv_1/convolution/merged_input", "op": "Const", "attr": {"value": {"tensor": {"dtype": "DT_FLOAT", "tensorShape": {"dim": [{"size": "1"}, {"size": "1"}, {"size": "128"}, {"size": "512"}]}}}, "dtype": {"type": "DT_FLOAT"}}}, {"name": "StatefulPartitionedCall/functional_1_1/conv3_block3_3_bn_1/batchnorm/sub", "op": "Const", "attr": {"value": {"tensor": {"dtype": "DT_FLOAT", "tensorShape": {"dim": [{"size": "1"}, {"size": "1"}, {"size": "1"}, {"size": "512"}]}}}, "dtype": {"type": "DT_FLOAT"}}}, {"name": "StatefulPartitionedCall/functional_1_1/conv3_block4_1_conv_1/convolution/merged_input", "op": "Const", "attr": {"value": {"tensor": {"dtype": "DT_FLOAT", "tensorShape": {"dim": [{"size": "1"}, {"size": "1"}, {"size": "512"}, {"size": "128"}]}}}, "dtype": {"type": "DT_FLOAT"}}}, {"name": "StatefulPartitionedCall/functional_1_1/conv3_block4_1_bn_1/batchnorm/sub", "op": "Const", "attr": {"value": {"tensor": {"dtype": "DT_FLOAT", "tensorShape": {"dim": [{"size": "1"}, {"size": "1"}, {"size": "1"}, {"size": "128"}]}}}, "dtype": {"type": "DT_FLOAT"}}}, {"name": "StatefulPartitionedCall/functional_1_1/conv3_block4_2_conv_1/convolution/merged_input", "op": "Const", "attr": {"value": {"tensor": {"dtype": "DT_FLOAT", "tensorShape": {"dim": [{"size": "3"}, {"size": "3"}, {"size": "128"}, {"size": "128"}]}}}, "dtype": {"type": "DT_FLOAT"}}}, {"name": "StatefulPartitionedCall/functional_1_1/conv3_block4_2_bn_1/batchnorm/sub", "op": "Const", "attr": {"value": {"tensor": {"dtype": "DT_FLOAT", "tensorShape": {"dim": [{"size": "1"}, {"size": "1"}, {"size": "1"}, {"size": "128"}]}}}, "dtype": {"type": "DT_FLOAT"}}}, {"name": "StatefulPartitionedCall/functional_1_1/conv3_block4_3_conv_1/convolution/merged_input", "op": "Const", "attr": {"value": {"tensor": {"dtype": "DT_FLOAT", "tensorShape": {"dim": [{"size": "1"}, {"size": "1"}, {"size": "128"}, {"size": "512"}]}}}, "dtype": {"type": "DT_FLOAT"}}}, {"name": "StatefulPartitionedCall/functional_1_1/conv3_block4_3_bn_1/batchnorm/sub", "op": "Const", "attr": {"value": {"tensor": {"dtype": "DT_FLOAT", "tensorShape": {"dim": [{"size": "1"}, {"size": "1"}, {"size": "1"}, {"size": "512"}]}}}, "dtype": {"type": "DT_FLOAT"}}}, {"name": "StatefulPartitionedCall/functional_1_1/conv4_block1_1_conv_1/convolution/merged_input", "op": "Const", "attr": {"value": {"tensor": {"dtype": "DT_FLOAT", "tensorShape": {"dim": [{"size": "1"}, {"size": "1"}, {"size": "512"}, {"size": "256"}]}}}, "dtype": {"type": "DT_FLOAT"}}}, {"name": "StatefulPartitionedCall/functional_1_1/conv4_block1_1_bn_1/batchnorm/sub", "op": "Const", "attr": {"value": {"tensor": {"dtype": "DT_FLOAT", "tensorShape": {"dim": [{"size": "1"}, {"size": "1"}, {"size": "1"}, {"size": "256"}]}}}, "dtype": {"type": "DT_FLOAT"}}}, {"name": "StatefulPartitionedCall/functional_1_1/conv4_block1_2_conv_1/convolution/merged_input", "op": "Const", "attr": {"value": {"tensor": {"dtype": "DT_FLOAT", "tensorShape": {"dim": [{"size": "3"}, {"size": "3"}, {"size": "256"}, {"size": "256"}]}}}, "dtype": {"type": "DT_FLOAT"}}}, {"name": "StatefulPartitionedCall/functional_1_1/conv4_block1_2_bn_1/batchnorm/sub", "op": "Const", "attr": {"value": {"tensor": {"dtype": "DT_FLOAT", "tensorShape": {"dim": [{"size": "1"}, {"size": "1"}, {"size": "1"}, {"size": "256"}]}}}, "dtype": {"type": "DT_FLOAT"}}}, {"name": "StatefulPartitionedCall/functional_1_1/conv4_block1_3_conv_1/convolution/merged_input", "op": "Const", "attr": {"value": {"tensor": {"dtype": "DT_FLOAT", "tensorShape": {"dim": [{"size": "1"}, {"size": "1"}, {"size": "256"}, {"size": "1024"}]}}}, "dtype": {"type": "DT_FLOAT"}}}, {"name": "StatefulPartitionedCall/functional_1_1/conv4_block1_3_bn_1/batchnorm/sub", "op": "Const", "attr": {"value": {"tensor": {"dtype": "DT_FLOAT", "tensorShape": {"dim": [{"size": "1"}, {"size": "1"}, {"size": "1"}, {"size": "1024"}]}}}, "dtype": {"type": "DT_FLOAT"}}}, {"name": "StatefulPartitionedCall/functional_1_1/conv4_block2_1_conv_1/convolution/merged_input", "op": "Const", "attr": {"value": {"tensor": {"dtype": "DT_FLOAT", "tensorShape": {"dim": [{"size": "1"}, {"size": "1"}, {"size": "1024"}, {"size": "256"}]}}}, "dtype": {"type": "DT_FLOAT"}}}, {"name": "StatefulPartitionedCall/functional_1_1/conv4_block2_1_bn_1/batchnorm/sub", "op": "Const", "attr": {"value": {"tensor": {"dtype": "DT_FLOAT", "tensorShape": {"dim": [{"size": "1"}, {"size": "1"}, {"size": "1"}, {"size": "256"}]}}}, "dtype": {"type": "DT_FLOAT"}}}, {"name": "StatefulPartitionedCall/functional_1_1/conv4_block2_2_conv_1/convolution/merged_input", "op": "Const", "attr": {"value": {"tensor": {"dtype": "DT_FLOAT", "tensorShape": {"dim": [{"size": "3"}, {"size": "3"}, {"size": "256"}, {"size": "256"}]}}}, "dtype": {"type": "DT_FLOAT"}}}, {"name": "StatefulPartitionedCall/functional_1_1/conv4_block2_2_bn_1/batchnorm/sub", "op": "Const", "attr": {"value": {"tensor": {"dtype": "DT_FLOAT", "tensorShape": {"dim": [{"size": "1"}, {"size": "1"}, {"size": "1"}, {"size": "256"}]}}}, "dtype": {"type": "DT_FLOAT"}}}, {"name": "StatefulPartitionedCall/functional_1_1/conv4_block2_3_conv_1/convolution/merged_input", "op": "Const", "attr": {"value": {"tensor": {"dtype": "DT_FLOAT", "tensorShape": {"dim": [{"size": "1"}, {"size": "1"}, {"size": "256"}, {"size": "1024"}]}}}, "dtype": {"type": "DT_FLOAT"}}}, {"name": "StatefulPartitionedCall/functional_1_1/conv4_block2_3_bn_1/batchnorm/sub", "op": "Const", "attr": {"value": {"tensor": {"dtype": "DT_FLOAT", "tensorShape": {"dim": [{"size": "1"}, {"size": "1"}, {"size": "1"}, {"size": "1024"}]}}}, "dtype": {"type": "DT_FLOAT"}}}, {"name": "StatefulPartitionedCall/functional_1_1/conv4_block3_1_conv_1/convolution/merged_input", "op": "Const", "attr": {"value": {"tensor": {"dtype": "DT_FLOAT", "tensorShape": {"dim": [{"size": "1"}, {"size": "1"}, {"size": "1024"}, {"size": "256"}]}}}, "dtype": {"type": "DT_FLOAT"}}}, {"name": "StatefulPartitionedCall/functional_1_1/conv4_block3_1_bn_1/batchnorm/sub", "op": "Const", "attr": {"value": {"tensor": {"dtype": "DT_FLOAT", "tensorShape": {"dim": [{"size": "1"}, {"size": "1"}, {"size": "1"}, {"size": "256"}]}}}, "dtype": {"type": "DT_FLOAT"}}}, {"name": "StatefulPartitionedCall/functional_1_1/conv4_block3_2_conv_1/convolution/merged_input", "op": "Const", "attr": {"value": {"tensor": {"dtype": "DT_FLOAT", "tensorShape": {"dim": [{"size": "3"}, {"size": "3"}, {"size": "256"}, {"size": "256"}]}}}, "dtype": {"type": "DT_FLOAT"}}}, {"name": "StatefulPartitionedCall/functional_1_1/conv4_block3_2_bn_1/batchnorm/sub", "op": "Const", "attr": {"value": {"tensor": {"dtype": "DT_FLOAT", "tensorShape": {"dim": [{"size": "1"}, {"size": "1"}, {"size": "1"}, {"size": "256"}]}}}, "dtype": {"type": "DT_FLOAT"}}}, {"name": "StatefulPartitionedCall/functional_1_1/conv4_block3_3_conv_1/convolution/merged_input", "op": "Const", "attr": {"value": {"tensor": {"dtype": "DT_FLOAT", "tensorShape": {"dim": [{"size": "1"}, {"size": "1"}, {"size": "256"}, {"size": "1024"}]}}}, "dtype": {"type": "DT_FLOAT"}}}, {"name": "StatefulPartitionedCall/functional_1_1/conv4_block3_3_bn_1/batchnorm/sub", "op": "Const", "attr": {"value": {"tensor": {"dtype": "DT_FLOAT", "tensorShape": {"dim": [{"size": "1"}, {"size": "1"}, {"size": "1"}, {"size": "1024"}]}}}, "dtype": {"type": "DT_FLOAT"}}}, {"name": "StatefulPartitionedCall/functional_1_1/conv4_block4_1_conv_1/convolution/merged_input", "op": "Const", "attr": {"value": {"tensor": {"dtype": "DT_FLOAT", "tensorShape": {"dim": [{"size": "1"}, {"size": "1"}, {"size": "1024"}, {"size": "256"}]}}}, "dtype": {"type": "DT_FLOAT"}}}, {"name": "StatefulPartitionedCall/functional_1_1/conv4_block4_1_bn_1/batchnorm/sub", "op": "Const", "attr": {"value": {"tensor": {"dtype": "DT_FLOAT", "tensorShape": {"dim": [{"size": "1"}, {"size": "1"}, {"size": "1"}, {"size": "256"}]}}}, "dtype": {"type": "DT_FLOAT"}}}, {"name": "StatefulPartitionedCall/functional_1_1/conv4_block4_2_conv_1/convolution/merged_input", "op": "Const", "attr": {"value": {"tensor": {"dtype": "DT_FLOAT", "tensorShape": {"dim": [{"size": "3"}, {"size": "3"}, {"size": "256"}, {"size": "256"}]}}}, "dtype": {"type": "DT_FLOAT"}}}, {"name": "StatefulPartitionedCall/functional_1_1/conv4_block4_2_bn_1/batchnorm/sub", "op": "Const", "attr": {"value": {"tensor": {"dtype": "DT_FLOAT", "tensorShape": {"dim": [{"size": "1"}, {"size": "1"}, {"size": "1"}, {"size": "256"}]}}}, "dtype": {"type": "DT_FLOAT"}}}, {"name": "StatefulPartitionedCall/functional_1_1/conv4_block4_3_conv_1/convolution/merged_input", "op": "Const", "attr": {"value": {"tensor": {"dtype": "DT_FLOAT", "tensorShape": {"dim": [{"size": "1"}, {"size": "1"}, {"size": "256"}, {"size": "1024"}]}}}, "dtype": {"type": "DT_FLOAT"}}}, {"name": "StatefulPartitionedCall/functional_1_1/conv4_block4_3_bn_1/batchnorm/sub", "op": "Const", "attr": {"value": {"tensor": {"dtype": "DT_FLOAT", "tensorShape": {"dim": [{"size": "1"}, {"size": "1"}, {"size": "1"}, {"size": "1024"}]}}}, "dtype": {"type": "DT_FLOAT"}}}, {"name": "StatefulPartitionedCall/functional_1_1/conv4_block5_1_conv_1/convolution/merged_input", "op": "Const", "attr": {"value": {"tensor": {"dtype": "DT_FLOAT", "tensorShape": {"dim": [{"size": "1"}, {"size": "1"}, {"size": "1024"}, {"size": "256"}]}}}, "dtype": {"type": "DT_FLOAT"}}}, {"name": "StatefulPartitionedCall/functional_1_1/conv4_block5_1_bn_1/batchnorm/sub", "op": "Const", "attr": {"value": {"tensor": {"dtype": "DT_FLOAT", "tensorShape": {"dim": [{"size": "1"}, {"size": "1"}, {"size": "1"}, {"size": "256"}]}}}, "dtype": {"type": "DT_FLOAT"}}}, {"name": "StatefulPartitionedCall/functional_1_1/conv4_block5_2_conv_1/convolution/merged_input", "op": "Const", "attr": {"value": {"tensor": {"dtype": "DT_FLOAT", "tensorShape": {"dim": [{"size": "3"}, {"size": "3"}, {"size": "256"}, {"size": "256"}]}}}, "dtype": {"type": "DT_FLOAT"}}}, {"name": "StatefulPartitionedCall/functional_1_1/conv4_block5_2_bn_1/batchnorm/sub", "op": "Const", "attr": {"value": {"tensor": {"dtype": "DT_FLOAT", "tensorShape": {"dim": [{"size": "1"}, {"size": "1"}, {"size": "1"}, {"size": "256"}]}}}, "dtype": {"type": "DT_FLOAT"}}}, {"name": "StatefulPartitionedCall/functional_1_1/conv4_block5_3_conv_1/convolution/merged_input", "op": "Const", "attr": {"value": {"tensor": {"dtype": "DT_FLOAT", "tensorShape": {"dim": [{"size": "1"}, {"size": "1"}, {"size": "256"}, {"size": "1024"}]}}}, "dtype": {"type": "DT_FLOAT"}}}, {"name": "StatefulPartitionedCall/functional_1_1/conv4_block5_3_bn_1/batchnorm/sub", "op": "Const", "attr": {"value": {"tensor": {"dtype": "DT_FLOAT", "tensorShape": {"dim": [{"size": "1"}, {"size": "1"}, {"size": "1"}, {"size": "1024"}]}}}, "dtype": {"type": "DT_FLOAT"}}}, {"name": "StatefulPartitionedCall/functional_1_1/conv4_block6_1_conv_1/convolution/merged_input", "op": "Const", "attr": {"value": {"tensor": {"dtype": "DT_FLOAT", "tensorShape": {"dim": [{"size": "1"}, {"size": "1"}, {"size": "1024"}, {"size": "256"}]}}}, "dtype": {"type": "DT_FLOAT"}}}, {"name": "StatefulPartitionedCall/functional_1_1/conv4_block6_1_bn_1/batchnorm/sub", "op": "Const", "attr": {"value": {"tensor": {"dtype": "DT_FLOAT", "tensorShape": {"dim": [{"size": "1"}, {"size": "1"}, {"size": "1"}, {"size": "256"}]}}}, "dtype": {"type": "DT_FLOAT"}}}, {"name": "StatefulPartitionedCall/functional_1_1/conv4_block6_2_conv_1/convolution/merged_input", "op": "Const", "attr": {"value": {"tensor": {"dtype": "DT_FLOAT", "tensorShape": {"dim": [{"size": "3"}, {"size": "3"}, {"size": "256"}, {"size": "256"}]}}}, "dtype": {"type": "DT_FLOAT"}}}, {"name": "StatefulPartitionedCall/functional_1_1/conv4_block6_2_bn_1/batchnorm/sub", "op": "Const", "attr": {"value": {"tensor": {"dtype": "DT_FLOAT", "tensorShape": {"dim": [{"size": "1"}, {"size": "1"}, {"size": "1"}, {"size": "256"}]}}}, "dtype": {"type": "DT_FLOAT"}}}, {"name": "StatefulPartitionedCall/functional_1_1/conv4_block6_3_conv_1/convolution/merged_input", "op": "Const", "attr": {"value": {"tensor": {"dtype": "DT_FLOAT", "tensorShape": {"dim": [{"size": "1"}, {"size": "1"}, {"size": "256"}, {"size": "1024"}]}}}, "dtype": {"type": "DT_FLOAT"}}}, {"name": "StatefulPartitionedCall/functional_1_1/conv4_block6_3_bn_1/batchnorm/sub", "op": "Const", "attr": {"value": {"tensor": {"dtype": "DT_FLOAT", "tensorShape": {"dim": [{"size": "1"}, {"size": "1"}, {"size": "1"}, {"size": "1024"}]}}}, "dtype": {"type": "DT_FLOAT"}}}, {"name": "StatefulPartitionedCall/functional_1_1/conv5_block1_1_conv_1/convolution/merged_input", "op": "Const", "attr": {"value": {"tensor": {"dtype": "DT_FLOAT", "tensorShape": {"dim": [{"size": "1"}, {"size": "1"}, {"size": "1024"}, {"size": "512"}]}}}, "dtype": {"type": "DT_FLOAT"}}}, {"name": "StatefulPartitionedCall/functional_1_1/conv5_block1_1_bn_1/batchnorm/sub", "op": "Const", "attr": {"value": {"tensor": {"dtype": "DT_FLOAT", "tensorShape": {"dim": [{"size": "1"}, {"size": "1"}, {"size": "1"}, {"size": "512"}]}}}, "dtype": {"type": "DT_FLOAT"}}}, {"name": "StatefulPartitionedCall/functional_1_1/conv5_block1_2_conv_1/convolution/merged_input", "op": "Const", "attr": {"value": {"tensor": {"dtype": "DT_FLOAT", "tensorShape": {"dim": [{"size": "3"}, {"size": "3"}, {"size": "512"}, {"size": "512"}]}}}, "dtype": {"type": "DT_FLOAT"}}}, {"name": "StatefulPartitionedCall/functional_1_1/conv5_block1_2_bn_1/batchnorm/sub", "op": "Const", "attr": {"value": {"tensor": {"dtype": "DT_FLOAT", "tensorShape": {"dim": [{"size": "1"}, {"size": "1"}, {"size": "1"}, {"size": "512"}]}}}, "dtype": {"type": "DT_FLOAT"}}}, {"name": "StatefulPartitionedCall/functional_1_1/conv5_block1_3_conv_1/convolution/merged_input", "op": "Const", "attr": {"value": {"tensor": {"dtype": "DT_FLOAT", "tensorShape": {"dim": [{"size": "1"}, {"size": "1"}, {"size": "512"}, {"size": "2048"}]}}}, "dtype": {"type": "DT_FLOAT"}}}, {"name": "StatefulPartitionedCall/functional_1_1/conv5_block1_3_bn_1/batchnorm/sub", "op": "Const", "attr": {"value": {"tensor": {"dtype": "DT_FLOAT", "tensorShape": {"dim": [{"size": "1"}, {"size": "1"}, {"size": "1"}, {"size": "2048"}]}}}, "dtype": {"type": "DT_FLOAT"}}}, {"name": "StatefulPartitionedCall/functional_1_1/conv5_block2_1_conv_1/convolution/merged_input", "op": "Const", "attr": {"value": {"tensor": {"dtype": "DT_FLOAT", "tensorShape": {"dim": [{"size": "1"}, {"size": "1"}, {"size": "2048"}, {"size": "512"}]}}}, "dtype": {"type": "DT_FLOAT"}}}, {"name": "StatefulPartitionedCall/functional_1_1/conv5_block2_1_bn_1/batchnorm/sub", "op": "Const", "attr": {"value": {"tensor": {"dtype": "DT_FLOAT", "tensorShape": {"dim": [{"size": "1"}, {"size": "1"}, {"size": "1"}, {"size": "512"}]}}}, "dtype": {"type": "DT_FLOAT"}}}, {"name": "StatefulPartitionedCall/functional_1_1/conv5_block2_2_conv_1/convolution/merged_input", "op": "Const", "attr": {"value": {"tensor": {"dtype": "DT_FLOAT", "tensorShape": {"dim": [{"size": "3"}, {"size": "3"}, {"size": "512"}, {"size": "512"}]}}}, "dtype": {"type": "DT_FLOAT"}}}, {"name": "StatefulPartitionedCall/functional_1_1/conv5_block2_2_bn_1/batchnorm/sub", "op": "Const", "attr": {"value": {"tensor": {"dtype": "DT_FLOAT", "tensorShape": {"dim": [{"size": "1"}, {"size": "1"}, {"size": "1"}, {"size": "512"}]}}}, "dtype": {"type": "DT_FLOAT"}}}, {"name": "StatefulPartitionedCall/functional_1_1/conv5_block2_3_conv_1/convolution/merged_input", "op": "Const", "attr": {"value": {"tensor": {"dtype": "DT_FLOAT", "tensorShape": {"dim": [{"size": "1"}, {"size": "1"}, {"size": "512"}, {"size": "2048"}]}}}, "dtype": {"type": "DT_FLOAT"}}}, {"name": "StatefulPartitionedCall/functional_1_1/conv5_block2_3_bn_1/batchnorm/sub", "op": "Const", "attr": {"value": {"tensor": {"dtype": "DT_FLOAT", "tensorShape": {"dim": [{"size": "1"}, {"size": "1"}, {"size": "1"}, {"size": "2048"}]}}}, "dtype": {"type": "DT_FLOAT"}}}, {"name": "StatefulPartitionedCall/functional_1_1/conv5_block3_1_conv_1/convolution/merged_input", "op": "Const", "attr": {"value": {"tensor": {"dtype": "DT_FLOAT", "tensorShape": {"dim": [{"size": "1"}, {"size": "1"}, {"size": "2048"}, {"size": "512"}]}}}, "dtype": {"type": "DT_FLOAT"}}}, {"name": "StatefulPartitionedCall/functional_1_1/conv5_block3_1_bn_1/batchnorm/sub", "op": "Const", "attr": {"value": {"tensor": {"dtype": "DT_FLOAT", "tensorShape": {"dim": [{"size": "1"}, {"size": "1"}, {"size": "1"}, {"size": "512"}]}}}, "dtype": {"type": "DT_FLOAT"}}}, {"name": "StatefulPartitionedCall/functional_1_1/conv5_block3_2_conv_1/convolution/merged_input", "op": "Const", "attr": {"value": {"tensor": {"dtype": "DT_FLOAT", "tensorShape": {"dim": [{"size": "3"}, {"size": "3"}, {"size": "512"}, {"size": "512"}]}}}, "dtype": {"type": "DT_FLOAT"}}}, {"name": "StatefulPartitionedCall/functional_1_1/conv5_block3_2_bn_1/batchnorm/sub", "op": "Const", "attr": {"value": {"tensor": {"dtype": "DT_FLOAT", "tensorShape": {"dim": [{"size": "1"}, {"size": "1"}, {"size": "1"}, {"size": "512"}]}}}, "dtype": {"type": "DT_FLOAT"}}}, {"name": "StatefulPartitionedCall/functional_1_1/conv5_block3_3_conv_1/convolution/merged_input", "op": "Const", "attr": {"value": {"tensor": {"dtype": "DT_FLOAT", "tensorShape": {"dim": [{"size": "1"}, {"size": "1"}, {"size": "512"}, {"size": "2048"}]}}}, "dtype": {"type": "DT_FLOAT"}}}, {"name": "StatefulPartitionedCall/functional_1_1/conv5_block3_3_bn_1/batchnorm/sub", "op": "Const", "attr": {"value": {"tensor": {"dtype": "DT_FLOAT", "tensorShape": {"dim": [{"size": "1"}, {"size": "1"}, {"size": "1"}, {"size": "2048"}]}}}, "dtype": {"type": "DT_FLOAT"}}}, {"name": "StatefulPartitionedCall/functional_1_1/global_average_pooling2d_1_1/Mean/reduction_indices", "op": "Const", "attr": {"value": {"tensor": {"dtype": "DT_INT32", "tensorShape": {"dim": [{"size": "2"}]}}}, "dtype": {"type": "DT_INT32"}}}, {"name": "StatefulPartitionedCall/functional_1_1/dense_2_1/Cast/ReadVariableOp", "op": "Const", "attr": {"value": {"tensor": {"dtype": "DT_FLOAT", "tensorShape": {"dim": [{"size": "2048"}, {"size": "128"}]}}}, "dtype": {"type": "DT_FLOAT"}}}, {"name": "StatefulPartitionedCall/functional_1_1/dense_2_1/BiasAdd/ReadVariableOp", "op": "Const", "attr": {"value": {"tensor": {"dtype": "DT_FLOAT", "tensorShape": {"dim": [{"size": "128"}]}}}, "dtype": {"type": "DT_FLOAT"}}}, {"name": "StatefulPartitionedCall/functional_1_1/dense_3_1/Cast/ReadVariableOp", "op": "Const", "attr": {"value": {"tensor": {"dtype": "DT_FLOAT", "tensorShape": {"dim": [{"size": "128"}, {"size": "1"}]}}}, "dtype": {"type": "DT_FLOAT"}}}, {"name": "StatefulPartitionedCall/functional_1_1/dense_3_1/Add/ReadVariableOp", "op": "Const", "attr": {"value": {"tensor": {"dtype": "DT_FLOAT", "tensorShape": {"dim": [{"size": "1"}]}}}, "dtype": {"type": "DT_FLOAT"}}}, {"name": "inputs", "op": "Placeholder", "attr": {"shape": {"shape": {"dim": [{"size": "-1"}, {"size": "224"}, {"size": "224"}, {"size": "3"}]}}, "dtype": {"type": "DT_FLOAT"}}}, {"name": "StatefulPartitionedCall/functional_1_1/conv1_pad_1/Pad", "op": "Pad", "input": ["inputs", "StatefulPartitionedCall/functional_1_1/conv1_pad_1/Const"], "attr": {"Tpaddings": {"type": "DT_INT32"}, "T": {"type": "DT_FLOAT"}}}, {"name": "StatefulPartitionedCall/functional_1_1/conv1_conv_1/BiasAdd", "op": "_FusedConv2D", "input": ["StatefulPartitionedCall/functional_1_1/conv1_pad_1/Pad", "StatefulPartitionedCall/functional_1_1/conv1_conv_1/convolution/ReadVariableOp", "StatefulPartitionedCall/functional_1_1/conv1_conv_1/Squeeze"], "device": "/device:CPU:0", "attr": {"num_host_args": {"i": "0"}, "data_format": {"s": "TkhXQw=="}, "filter_format": {"s": "SFdJTw=="}, "fused_ops": {"list": {"s": ["Qmlhc0FkZA=="]}}, "num_args": {"i": "1"}, "strides": {"list": {"i": ["1", "2", "2", "1"]}}, "TArgs": {"list": {"type": ["DT_FLOAT"]}}, "padding": {"s": "VkFMSUQ="}, "use_cudnn_on_gpu": {"b": true}, "leakyrelu_alpha": {"f": 0.2}, "epsilon": {"f": 0.0}, "T": {"type": "DT_FLOAT"}, "explicit_paddings": {"list": {}}, "dilations": {"list": {"i": ["1", "1", "1", "1"]}}}}, {"name": "StatefulPartitionedCall/functional_1_1/conv1_bn_1/batchnorm/mul_1", "op": "Mul", "input": ["StatefulPartitionedCall/functional_1_1/conv1_conv_1/BiasAdd", "StatefulPartitionedCall/functional_1_1/conv1_bn_1/batchnorm/mul"], "attr": {"T": {"type": "DT_FLOAT"}}}, {"name": "StatefulPartitionedCall/functional_1_1/conv1_bn_1/batchnorm/add_1", "op": "AddV2", "input": ["StatefulPartitionedCall/functional_1_1/conv1_bn_1/batchnorm/mul_1", "StatefulPartitionedCall/functional_1_1/conv1_bn_1/batchnorm/sub"], "attr": {"T": {"type": "DT_FLOAT"}}}, {"name": "StatefulPartitionedCall/functional_1_1/conv1_relu_1/Relu", "op": "Relu", "input": ["StatefulPartitionedCall/functional_1_1/conv1_bn_1/batchnorm/add_1"], "attr": {"T": {"type": "DT_FLOAT"}}}, {"name": "StatefulPartitionedCall/functional_1_1/pool1_pad_1/Pad", "op": "Pad", "input": ["StatefulPartitionedCall/functional_1_1/conv1_relu_1/Relu", "StatefulPartitionedCall/functional_1_1/pool1_pad_1/Const"], "attr": {"Tpaddings": {"type": "DT_INT32"}, "T": {"type": "DT_FLOAT"}}}, {"name": "StatefulPartitionedCall/functional_1_1/pool1_pool_1/MaxPool2d", "op": "MaxPool", "input": ["StatefulPartitionedCall/functional_1_1/pool1_pad_1/Pad"], "attr": {"ksize": {"list": {"i": ["1", "3", "3", "1"]}}, "data_format": {"s": "TkhXQw=="}, "T": {"type": "DT_FLOAT"}, "explicit_paddings": {"list": {}}, "padding": {"s": "VkFMSUQ="}, "strides": {"list": {"i": ["1", "2", "2", "1"]}}}}, {"name": "StatefulPartitionedCall/functional_1_1/conv2_block1_0_bn_1/batchnorm/add_1", "op": "_FusedConv2D", "input": ["StatefulPartitionedCall/functional_1_1/pool1_pool_1/MaxPool2d", "StatefulPartitionedCall/functional_1_1/conv2_block1_0_conv_1/convolution/merged_input", "StatefulPartitionedCall/functional_1_1/conv2_block1_0_bn_1/batchnorm/sub"], "device": "/device:CPU:0", "attr": {"num_host_args": {"i": "0"}, "data_format": {"s": "TkhXQw=="}, "filter_format": {"s": "SFdJTw=="}, "fused_ops": {"list": {"s": ["Qmlhc0FkZA=="]}}, "num_args": {"i": "1"}, "strides": {"list": {"i": ["1", "1", "1", "1"]}}, "TArgs": {"list": {"type": ["DT_FLOAT"]}}, "padding": {"s": "VkFMSUQ="}, "use_cudnn_on_gpu": {"b": true}, "leakyrelu_alpha": {"f": 0.2}, "epsilon": {"f": 0.0}, "T": {"type": "DT_FLOAT"}, "explicit_paddings": {"list": {}}, "dilations": {"list": {"i": ["1", "1", "1", "1"]}}}}, {"name": "StatefulPartitionedCall/functional_1_1/conv2_block1_1_relu_1/Relu", "op": "_FusedConv2D", "input": ["StatefulPartitionedCall/functional_1_1/pool1_pool_1/MaxPool2d", "StatefulPartitionedCall/functional_1_1/conv2_block1_1_conv_1/convolution/merged_input", "StatefulPartitionedCall/functional_1_1/conv2_block1_1_bn_1/batchnorm/sub"], "device": "/device:CPU:0", "attr": {"num_host_args": {"i": "0"}, "data_format": {"s": "TkhXQw=="}, "filter_format": {"s": "SFdJTw=="}, "fused_ops": {"list": {"s": ["Qmlhc0FkZA==", "UmVsdQ=="]}}, "num_args": {"i": "1"}, "strides": {"list": {"i": ["1", "1", "1", "1"]}}, "TArgs": {"list": {"type": ["DT_FLOAT"]}}, "padding": {"s": "VkFMSUQ="}, "use_cudnn_on_gpu": {"b": true}, "leakyrelu_alpha": {"f": 0.2}, "epsilon": {"f": 0.0}, "T": {"type": "DT_FLOAT"}, "explicit_paddings": {"list": {}}, "dilations": {"list": {"i": ["1", "1", "1", "1"]}}}}, {"name": "StatefulPartitionedCall/functional_1_1/conv2_block1_2_relu_1/Relu", "op": "_FusedConv2D", "input": ["StatefulPartitionedCall/functional_1_1/conv2_block1_1_relu_1/Relu", "StatefulPartitionedCall/functional_1_1/conv2_block1_2_conv_1/convolution/merged_input", "StatefulPartitionedCall/functional_1_1/conv2_block1_2_bn_1/batchnorm/sub"], "device": "/device:CPU:0", "attr": {"num_host_args": {"i": "0"}, "data_format": {"s": "TkhXQw=="}, "filter_format": {"s": "SFdJTw=="}, "fused_ops": {"list": {"s": ["Qmlhc0FkZA==", "UmVsdQ=="]}}, "num_args": {"i": "1"}, "strides": {"list": {"i": ["1", "1", "1", "1"]}}, "TArgs": {"list": {"type": ["DT_FLOAT"]}}, "padding": {"s": "U0FNRQ=="}, "use_cudnn_on_gpu": {"b": true}, "leakyrelu_alpha": {"f": 0.2}, "epsilon": {"f": 0.0}, "T": {"type": "DT_FLOAT"}, "explicit_paddings": {"list": {}}, "dilations": {"list": {"i": ["1", "1", "1", "1"]}}}}, {"name": "StatefulPartitionedCall/functional_1_1/conv2_block1_3_bn_1/batchnorm/add_1", "op": "_FusedConv2D", "input": ["StatefulPartitionedCall/functional_1_1/conv2_block1_2_relu_1/Relu", "StatefulPartitionedCall/functional_1_1/conv2_block1_3_conv_1/convolution/merged_input", "StatefulPartitionedCall/functional_1_1/conv2_block1_3_bn_1/batchnorm/sub"], "device": "/device:CPU:0", "attr": {"num_host_args": {"i": "0"}, "data_format": {"s": "TkhXQw=="}, "filter_format": {"s": "SFdJTw=="}, "strides": {"list": {"i": ["1", "1", "1", "1"]}}, "num_args": {"i": "1"}, "fused_ops": {"list": {"s": ["Qmlhc0FkZA=="]}}, "TArgs": {"list": {"type": ["DT_FLOAT"]}}, "padding": {"s": "VkFMSUQ="}, "use_cudnn_on_gpu": {"b": true}, "leakyrelu_alpha": {"f": 0.2}, "epsilon": {"f": 0.0}, "T": {"type": "DT_FLOAT"}, "explicit_paddings": {"list": {}}, "dilations": {"list": {"i": ["1", "1", "1", "1"]}}}}, {"name": "StatefulPartitionedCall/functional_1_1/conv2_block1_add_1/Add", "op": "AddV2", "input": ["StatefulPartitionedCall/functional_1_1/conv2_block1_0_bn_1/batchnorm/add_1", "StatefulPartitionedCall/functional_1_1/conv2_block1_3_bn_1/batchnorm/add_1"], "attr": {"T": {"type": "DT_FLOAT"}}}, {"name": "StatefulPartitionedCall/functional_1_1/conv2_block1_out_1/Relu", "op": "Relu", "input": ["StatefulPartitionedCall/functional_1_1/conv2_block1_add_1/Add"], "attr": {"T": {"type": "DT_FLOAT"}}}, {"name": "StatefulPartitionedCall/functional_1_1/conv2_block2_1_relu_1/Relu", "op": "_FusedConv2D", "input": ["StatefulPartitionedCall/functional_1_1/conv2_block1_out_1/Relu", "StatefulPartitionedCall/functional_1_1/conv2_block2_1_conv_1/convolution/merged_input", "StatefulPartitionedCall/functional_1_1/conv2_block2_1_bn_1/batchnorm/sub"], "device": "/device:CPU:0", "attr": {"num_host_args": {"i": "0"}, "data_format": {"s": "TkhXQw=="}, "filter_format": {"s": "SFdJTw=="}, "strides": {"list": {"i": ["1", "1", "1", "1"]}}, "num_args": {"i": "1"}, "fused_ops": {"list": {"s": ["Qmlhc0FkZA==", "UmVsdQ=="]}}, "TArgs": {"list": {"type": ["DT_FLOAT"]}}, "padding": {"s": "VkFMSUQ="}, "use_cudnn_on_gpu": {"b": true}, "leakyrelu_alpha": {"f": 0.2}, "epsilon": {"f": 0.0}, "T": {"type": "DT_FLOAT"}, "explicit_paddings": {"list": {}}, "dilations": {"list": {"i": ["1", "1", "1", "1"]}}}}, {"name": "StatefulPartitionedCall/functional_1_1/conv2_block2_2_relu_1/Relu", "op": "_FusedConv2D", "input": ["StatefulPartitionedCall/functional_1_1/conv2_block2_1_relu_1/Relu", "StatefulPartitionedCall/functional_1_1/conv2_block2_2_conv_1/convolution/merged_input", "StatefulPartitionedCall/functional_1_1/conv2_block2_2_bn_1/batchnorm/sub"], "device": "/device:CPU:0", "attr": {"num_host_args": {"i": "0"}, "data_format": {"s": "TkhXQw=="}, "filter_format": {"s": "SFdJTw=="}, "strides": {"list": {"i": ["1", "1", "1", "1"]}}, "num_args": {"i": "1"}, "fused_ops": {"list": {"s": ["Qmlhc0FkZA==", "UmVsdQ=="]}}, "TArgs": {"list": {"type": ["DT_FLOAT"]}}, "padding": {"s": "U0FNRQ=="}, "use_cudnn_on_gpu": {"b": true}, "leakyrelu_alpha": {"f": 0.2}, "epsilon": {"f": 0.0}, "T": {"type": "DT_FLOAT"}, "explicit_paddings": {"list": {}}, "dilations": {"list": {"i": ["1", "1", "1", "1"]}}}}, {"name": "StatefulPartitionedCall/functional_1_1/conv2_block2_3_bn_1/batchnorm/add_1", "op": "_FusedConv2D", "input": ["StatefulPartitionedCall/functional_1_1/conv2_block2_2_relu_1/Relu", "StatefulPartitionedCall/functional_1_1/conv2_block2_3_conv_1/convolution/merged_input", "StatefulPartitionedCall/functional_1_1/conv2_block2_3_bn_1/batchnorm/sub"], "device": "/device:CPU:0", "attr": {"num_host_args": {"i": "0"}, "data_format": {"s": "TkhXQw=="}, "filter_format": {"s": "SFdJTw=="}, "strides": {"list": {"i": ["1", "1", "1", "1"]}}, "num_args": {"i": "1"}, "fused_ops": {"list": {"s": ["Qmlhc0FkZA=="]}}, "TArgs": {"list": {"type": ["DT_FLOAT"]}}, "padding": {"s": "VkFMSUQ="}, "use_cudnn_on_gpu": {"b": true}, "leakyrelu_alpha": {"f": 0.2}, "epsilon": {"f": 0.0}, "T": {"type": "DT_FLOAT"}, "explicit_paddings": {"list": {}}, "dilations": {"list": {"i": ["1", "1", "1", "1"]}}}}, {"name": "StatefulPartitionedCall/functional_1_1/conv2_block2_add_1/Add", "op": "AddV2", "input": ["StatefulPartitionedCall/functional_1_1/conv2_block1_out_1/Relu", "StatefulPartitionedCall/functional_1_1/conv2_block2_3_bn_1/batchnorm/add_1"], "attr": {"T": {"type": "DT_FLOAT"}}}, {"name": "StatefulPartitionedCall/functional_1_1/conv2_block2_out_1/Relu", "op": "Relu", "input": ["StatefulPartitionedCall/functional_1_1/conv2_block2_add_1/Add"], "attr": {"T": {"type": "DT_FLOAT"}}}, {"name": "StatefulPartitionedCall/functional_1_1/conv2_block3_1_relu_1/Relu", "op": "_FusedConv2D", "input": ["StatefulPartitionedCall/functional_1_1/conv2_block2_out_1/Relu", "StatefulPartitionedCall/functional_1_1/conv2_block3_1_conv_1/convolution/merged_input", "StatefulPartitionedCall/functional_1_1/conv2_block3_1_bn_1/batchnorm/sub"], "device": "/device:CPU:0", "attr": {"num_host_args": {"i": "0"}, "data_format": {"s": "TkhXQw=="}, "filter_format": {"s": "SFdJTw=="}, "fused_ops": {"list": {"s": ["Qmlhc0FkZA==", "UmVsdQ=="]}}, "num_args": {"i": "1"}, "strides": {"list": {"i": ["1", "1", "1", "1"]}}, "TArgs": {"list": {"type": ["DT_FLOAT"]}}, "padding": {"s": "VkFMSUQ="}, "use_cudnn_on_gpu": {"b": true}, "leakyrelu_alpha": {"f": 0.2}, "epsilon": {"f": 0.0}, "T": {"type": "DT_FLOAT"}, "explicit_paddings": {"list": {}}, "dilations": {"list": {"i": ["1", "1", "1", "1"]}}}}, {"name": "StatefulPartitionedCall/functional_1_1/conv2_block3_2_relu_1/Relu", "op": "_FusedConv2D", "input": ["StatefulPartitionedCall/functional_1_1/conv2_block3_1_relu_1/Relu", "StatefulPartitionedCall/functional_1_1/conv2_block3_2_conv_1/convolution/merged_input", "StatefulPartitionedCall/functional_1_1/conv2_block3_2_bn_1/batchnorm/sub"], "device": "/device:CPU:0", "attr": {"num_host_args": {"i": "0"}, "data_format": {"s": "TkhXQw=="}, "filter_format": {"s": "SFdJTw=="}, "strides": {"list": {"i": ["1", "1", "1", "1"]}}, "num_args": {"i": "1"}, "fused_ops": {"list": {"s": ["Qmlhc0FkZA==", "UmVsdQ=="]}}, "TArgs": {"list": {"type": ["DT_FLOAT"]}}, "padding": {"s": "U0FNRQ=="}, "use_cudnn_on_gpu": {"b": true}, "leakyrelu_alpha": {"f": 0.2}, "epsilon": {"f": 0.0}, "T": {"type": "DT_FLOAT"}, "explicit_paddings": {"list": {}}, "dilations": {"list": {"i": ["1", "1", "1", "1"]}}}}, {"name": "StatefulPartitionedCall/functional_1_1/conv2_block3_3_bn_1/batchnorm/add_1", "op": "_FusedConv2D", "input": ["StatefulPartitionedCall/functional_1_1/conv2_block3_2_relu_1/Relu", "StatefulPartitionedCall/functional_1_1/conv2_block3_3_conv_1/convolution/merged_input", "StatefulPartitionedCall/functional_1_1/conv2_block3_3_bn_1/batchnorm/sub"], "device": "/device:CPU:0", "attr": {"num_host_args": {"i": "0"}, "data_format": {"s": "TkhXQw=="}, "filter_format": {"s": "SFdJTw=="}, "fused_ops": {"list": {"s": ["Qmlhc0FkZA=="]}}, "num_args": {"i": "1"}, "strides": {"list": {"i": ["1", "1", "1", "1"]}}, "TArgs": {"list": {"type": ["DT_FLOAT"]}}, "padding": {"s": "VkFMSUQ="}, "use_cudnn_on_gpu": {"b": true}, "leakyrelu_alpha": {"f": 0.2}, "epsilon": {"f": 0.0}, "T": {"type": "DT_FLOAT"}, "explicit_paddings": {"list": {}}, "dilations": {"list": {"i": ["1", "1", "1", "1"]}}}}, {"name": "StatefulPartitionedCall/functional_1_1/conv2_block3_add_1/Add", "op": "AddV2", "input": ["StatefulPartitionedCall/functional_1_1/conv2_block2_out_1/Relu", "StatefulPartitionedCall/functional_1_1/conv2_block3_3_bn_1/batchnorm/add_1"], "attr": {"T": {"type": "DT_FLOAT"}}}, {"name": "StatefulPartitionedCall/functional_1_1/conv2_block3_out_1/Relu", "op": "Relu", "input": ["StatefulPartitionedCall/functional_1_1/conv2_block3_add_1/Add"], "attr": {"T": {"type": "DT_FLOAT"}}}, {"name": "StatefulPartitionedCall/functional_1_1/conv3_block1_0_bn_1/batchnorm/add_1", "op": "_FusedConv2D", "input": ["StatefulPartitionedCall/functional_1_1/conv2_block3_out_1/Relu", "StatefulPartitionedCall/functional_1_1/conv3_block1_0_conv_1/convolution/merged_input", "StatefulPartitionedCall/functional_1_1/conv3_block1_0_bn_1/batchnorm/sub"], "device": "/device:CPU:0", "attr": {"num_host_args": {"i": "0"}, "data_format": {"s": "TkhXQw=="}, "filter_format": {"s": "SFdJTw=="}, "strides": {"list": {"i": ["1", "2", "2", "1"]}}, "num_args": {"i": "1"}, "fused_ops": {"list": {"s": ["Qmlhc0FkZA=="]}}, "TArgs": {"list": {"type": ["DT_FLOAT"]}}, "padding": {"s": "VkFMSUQ="}, "use_cudnn_on_gpu": {"b": true}, "leakyrelu_alpha": {"f": 0.2}, "epsilon": {"f": 0.0}, "T": {"type": "DT_FLOAT"}, "explicit_paddings": {"list": {}}, "dilations": {"list": {"i": ["1", "1", "1", "1"]}}}}, {"name": "StatefulPartitionedCall/functional_1_1/conv3_block1_1_relu_1/Relu", "op": "_FusedConv2D", "input": ["StatefulPartitionedCall/functional_1_1/conv2_block3_out_1/Relu", "StatefulPartitionedCall/functional_1_1/conv3_block1_1_conv_1/convolution/merged_input", "StatefulPartitionedCall/functional_1_1/conv3_block1_1_bn_1/batchnorm/sub"], "device": "/device:CPU:0", "attr": {"num_host_args": {"i": "0"}, "data_format": {"s": "TkhXQw=="}, "filter_format": {"s": "SFdJTw=="}, "fused_ops": {"list": {"s": ["Qmlhc0FkZA==", "UmVsdQ=="]}}, "num_args": {"i": "1"}, "strides": {"list": {"i": ["1", "2", "2", "1"]}}, "TArgs": {"list": {"type": ["DT_FLOAT"]}}, "padding": {"s": "VkFMSUQ="}, "use_cudnn_on_gpu": {"b": true}, "leakyrelu_alpha": {"f": 0.2}, "epsilon": {"f": 0.0}, "T": {"type": "DT_FLOAT"}, "explicit_paddings": {"list": {}}, "dilations": {"list": {"i": ["1", "1", "1", "1"]}}}}, {"name": "StatefulPartitionedCall/functional_1_1/conv3_block1_2_relu_1/Relu", "op": "_FusedConv2D", "input": ["StatefulPartitionedCall/functional_1_1/conv3_block1_1_relu_1/Relu", "StatefulPartitionedCall/functional_1_1/conv3_block1_2_conv_1/convolution/merged_input", "StatefulPartitionedCall/functional_1_1/conv3_block1_2_bn_1/batchnorm/sub"], "device": "/device:CPU:0", "attr": {"num_host_args": {"i": "0"}, "data_format": {"s": "TkhXQw=="}, "filter_format": {"s": "SFdJTw=="}, "strides": {"list": {"i": ["1", "1", "1", "1"]}}, "num_args": {"i": "1"}, "fused_ops": {"list": {"s": ["Qmlhc0FkZA==", "UmVsdQ=="]}}, "TArgs": {"list": {"type": ["DT_FLOAT"]}}, "padding": {"s": "U0FNRQ=="}, "use_cudnn_on_gpu": {"b": true}, "leakyrelu_alpha": {"f": 0.2}, "epsilon": {"f": 0.0}, "T": {"type": "DT_FLOAT"}, "explicit_paddings": {"list": {}}, "dilations": {"list": {"i": ["1", "1", "1", "1"]}}}}, {"name": "StatefulPartitionedCall/functional_1_1/conv3_block1_3_bn_1/batchnorm/add_1", "op": "_FusedConv2D", "input": ["StatefulPartitionedCall/functional_1_1/conv3_block1_2_relu_1/Relu", "StatefulPartitionedCall/functional_1_1/conv3_block1_3_conv_1/convolution/merged_input", "StatefulPartitionedCall/functional_1_1/conv3_block1_3_bn_1/batchnorm/sub"], "device": "/device:CPU:0", "attr": {"num_host_args": {"i": "0"}, "data_format": {"s": "TkhXQw=="}, "filter_format": {"s": "SFdJTw=="}, "fused_ops": {"list": {"s": ["Qmlhc0FkZA=="]}}, "num_args": {"i": "1"}, "strides": {"list": {"i": ["1", "1", "1", "1"]}}, "TArgs": {"list": {"type": ["DT_FLOAT"]}}, "padding": {"s": "VkFMSUQ="}, "use_cudnn_on_gpu": {"b": true}, "leakyrelu_alpha": {"f": 0.2}, "epsilon": {"f": 0.0}, "T": {"type": "DT_FLOAT"}, "explicit_paddings": {"list": {}}, "dilations": {"list": {"i": ["1", "1", "1", "1"]}}}}, {"name": "StatefulPartitionedCall/functional_1_1/conv3_block1_add_1/Add", "op": "AddV2", "input": ["StatefulPartitionedCall/functional_1_1/conv3_block1_0_bn_1/batchnorm/add_1", "StatefulPartitionedCall/functional_1_1/conv3_block1_3_bn_1/batchnorm/add_1"], "attr": {"T": {"type": "DT_FLOAT"}}}, {"name": "StatefulPartitionedCall/functional_1_1/conv3_block1_out_1/Relu", "op": "Relu", "input": ["StatefulPartitionedCall/functional_1_1/conv3_block1_add_1/Add"], "attr": {"T": {"type": "DT_FLOAT"}}}, {"name": "StatefulPartitionedCall/functional_1_1/conv3_block2_1_relu_1/Relu", "op": "_FusedConv2D", "input": ["StatefulPartitionedCall/functional_1_1/conv3_block1_out_1/Relu", "StatefulPartitionedCall/functional_1_1/conv3_block2_1_conv_1/convolution/merged_input", "StatefulPartitionedCall/functional_1_1/conv3_block2_1_bn_1/batchnorm/sub"], "device": "/device:CPU:0", "attr": {"num_host_args": {"i": "0"}, "data_format": {"s": "TkhXQw=="}, "filter_format": {"s": "SFdJTw=="}, "fused_ops": {"list": {"s": ["Qmlhc0FkZA==", "UmVsdQ=="]}}, "num_args": {"i": "1"}, "strides": {"list": {"i": ["1", "1", "1", "1"]}}, "TArgs": {"list": {"type": ["DT_FLOAT"]}}, "padding": {"s": "VkFMSUQ="}, "use_cudnn_on_gpu": {"b": true}, "leakyrelu_alpha": {"f": 0.2}, "epsilon": {"f": 0.0}, "T": {"type": "DT_FLOAT"}, "explicit_paddings": {"list": {}}, "dilations": {"list": {"i": ["1", "1", "1", "1"]}}}}, {"name": "StatefulPartitionedCall/functional_1_1/conv3_block2_2_relu_1/Relu", "op": "_FusedConv2D", "input": ["StatefulPartitionedCall/functional_1_1/conv3_block2_1_relu_1/Relu", "StatefulPartitionedCall/functional_1_1/conv3_block2_2_conv_1/convolution/merged_input", "StatefulPartitionedCall/functional_1_1/conv3_block2_2_bn_1/batchnorm/sub"], "device": "/device:CPU:0", "attr": {"num_host_args": {"i": "0"}, "data_format": {"s": "TkhXQw=="}, "filter_format": {"s": "SFdJTw=="}, "strides": {"list": {"i": ["1", "1", "1", "1"]}}, "num_args": {"i": "1"}, "fused_ops": {"list": {"s": ["Qmlhc0FkZA==", "UmVsdQ=="]}}, "TArgs": {"list": {"type": ["DT_FLOAT"]}}, "padding": {"s": "U0FNRQ=="}, "use_cudnn_on_gpu": {"b": true}, "leakyrelu_alpha": {"f": 0.2}, "epsilon": {"f": 0.0}, "T": {"type": "DT_FLOAT"}, "explicit_paddings": {"list": {}}, "dilations": {"list": {"i": ["1", "1", "1", "1"]}}}}, {"name": "StatefulPartitionedCall/functional_1_1/conv3_block2_3_bn_1/batchnorm/add_1", "op": "_FusedConv2D", "input": ["StatefulPartitionedCall/functional_1_1/conv3_block2_2_relu_1/Relu", "StatefulPartitionedCall/functional_1_1/conv3_block2_3_conv_1/convolution/merged_input", "StatefulPartitionedCall/functional_1_1/conv3_block2_3_bn_1/batchnorm/sub"], "device": "/device:CPU:0", "attr": {"num_host_args": {"i": "0"}, "data_format": {"s": "TkhXQw=="}, "filter_format": {"s": "SFdJTw=="}, "fused_ops": {"list": {"s": ["Qmlhc0FkZA=="]}}, "num_args": {"i": "1"}, "strides": {"list": {"i": ["1", "1", "1", "1"]}}, "TArgs": {"list": {"type": ["DT_FLOAT"]}}, "padding": {"s": "VkFMSUQ="}, "use_cudnn_on_gpu": {"b": true}, "leakyrelu_alpha": {"f": 0.2}, "epsilon": {"f": 0.0}, "T": {"type": "DT_FLOAT"}, "explicit_paddings": {"list": {}}, "dilations": {"list": {"i": ["1", "1", "1", "1"]}}}}, {"name": "StatefulPartitionedCall/functional_1_1/conv3_block2_add_1/Add", "op": "AddV2", "input": ["StatefulPartitionedCall/functional_1_1/conv3_block1_out_1/Relu", "StatefulPartitionedCall/functional_1_1/conv3_block2_3_bn_1/batchnorm/add_1"], "attr": {"T": {"type": "DT_FLOAT"}}}, {"name": "StatefulPartitionedCall/functional_1_1/conv3_block2_out_1/Relu", "op": "Relu", "input": ["StatefulPartitionedCall/functional_1_1/conv3_block2_add_1/Add"], "attr": {"T": {"type": "DT_FLOAT"}}}, {"name": "StatefulPartitionedCall/functional_1_1/conv3_block3_1_relu_1/Relu", "op": "_FusedConv2D", "input": ["StatefulPartitionedCall/functional_1_1/conv3_block2_out_1/Relu", "StatefulPartitionedCall/functional_1_1/conv3_block3_1_conv_1/convolution/merged_input", "StatefulPartitionedCall/functional_1_1/conv3_block3_1_bn_1/batchnorm/sub"], "device": "/device:CPU:0", "attr": {"num_host_args": {"i": "0"}, "data_format": {"s": "TkhXQw=="}, "filter_format": {"s": "SFdJTw=="}, "fused_ops": {"list": {"s": ["Qmlhc0FkZA==", "UmVsdQ=="]}}, "num_args": {"i": "1"}, "strides": {"list": {"i": ["1", "1", "1", "1"]}}, "TArgs": {"list": {"type": ["DT_FLOAT"]}}, "padding": {"s": "VkFMSUQ="}, "use_cudnn_on_gpu": {"b": true}, "leakyrelu_alpha": {"f": 0.2}, "epsilon": {"f": 0.0}, "T": {"type": "DT_FLOAT"}, "explicit_paddings": {"list": {}}, "dilations": {"list": {"i": ["1", "1", "1", "1"]}}}}, {"name": "StatefulPartitionedCall/functional_1_1/conv3_block3_2_relu_1/Relu", "op": "_FusedConv2D", "input": ["StatefulPartitionedCall/functional_1_1/conv3_block3_1_relu_1/Relu", "StatefulPartitionedCall/functional_1_1/conv3_block3_2_conv_1/convolution/merged_input", "StatefulPartitionedCall/functional_1_1/conv3_block3_2_bn_1/batchnorm/sub"], "device": "/device:CPU:0", "attr": {"num_host_args": {"i": "0"}, "data_format": {"s": "TkhXQw=="}, "filter_format": {"s": "SFdJTw=="}, "fused_ops": {"list": {"s": ["Qmlhc0FkZA==", "UmVsdQ=="]}}, "num_args": {"i": "1"}, "strides": {"list": {"i": ["1", "1", "1", "1"]}}, "TArgs": {"list": {"type": ["DT_FLOAT"]}}, "padding": {"s": "U0FNRQ=="}, "use_cudnn_on_gpu": {"b": true}, "leakyrelu_alpha": {"f": 0.2}, "epsilon": {"f": 0.0}, "T": {"type": "DT_FLOAT"}, "explicit_paddings": {"list": {}}, "dilations": {"list": {"i": ["1", "1", "1", "1"]}}}}, {"name": "StatefulPartitionedCall/functional_1_1/conv3_block3_3_bn_1/batchnorm/add_1", "op": "_FusedConv2D", "input": ["StatefulPartitionedCall/functional_1_1/conv3_block3_2_relu_1/Relu", "StatefulPartitionedCall/functional_1_1/conv3_block3_3_conv_1/convolution/merged_input", "StatefulPartitionedCall/functional_1_1/conv3_block3_3_bn_1/batchnorm/sub"], "device": "/device:CPU:0", "attr": {"num_host_args": {"i": "0"}, "data_format": {"s": "TkhXQw=="}, "filter_format": {"s": "SFdJTw=="}, "fused_ops": {"list": {"s": ["Qmlhc0FkZA=="]}}, "num_args": {"i": "1"}, "strides": {"list": {"i": ["1", "1", "1", "1"]}}, "TArgs": {"list": {"type": ["DT_FLOAT"]}}, "padding": {"s": "VkFMSUQ="}, "use_cudnn_on_gpu": {"b": true}, "leakyrelu_alpha": {"f": 0.2}, "epsilon": {"f": 0.0}, "T": {"type": "DT_FLOAT"}, "explicit_paddings": {"list": {}}, "dilations": {"list": {"i": ["1", "1", "1", "1"]}}}}, {"name": "StatefulPartitionedCall/functional_1_1/conv3_block3_add_1/Add", "op": "AddV2", "input": ["StatefulPartitionedCall/functional_1_1/conv3_block2_out_1/Relu", "StatefulPartitionedCall/functional_1_1/conv3_block3_3_bn_1/batchnorm/add_1"], "attr": {"T": {"type": "DT_FLOAT"}}}, {"name": "StatefulPartitionedCall/functional_1_1/conv3_block3_out_1/Relu", "op": "Relu", "input": ["StatefulPartitionedCall/functional_1_1/conv3_block3_add_1/Add"], "attr": {"T": {"type": "DT_FLOAT"}}}, {"name": "StatefulPartitionedCall/functional_1_1/conv3_block4_1_relu_1/Relu", "op": "_FusedConv2D", "input": ["StatefulPartitionedCall/functional_1_1/conv3_block3_out_1/Relu", "StatefulPartitionedCall/functional_1_1/conv3_block4_1_conv_1/convolution/merged_input", "StatefulPartitionedCall/functional_1_1/conv3_block4_1_bn_1/batchnorm/sub"], "device": "/device:CPU:0", "attr": {"num_host_args": {"i": "0"}, "data_format": {"s": "TkhXQw=="}, "filter_format": {"s": "SFdJTw=="}, "fused_ops": {"list": {"s": ["Qmlhc0FkZA==", "UmVsdQ=="]}}, "num_args": {"i": "1"}, "strides": {"list": {"i": ["1", "1", "1", "1"]}}, "TArgs": {"list": {"type": ["DT_FLOAT"]}}, "padding": {"s": "VkFMSUQ="}, "use_cudnn_on_gpu": {"b": true}, "leakyrelu_alpha": {"f": 0.2}, "epsilon": {"f": 0.0}, "T": {"type": "DT_FLOAT"}, "explicit_paddings": {"list": {}}, "dilations": {"list": {"i": ["1", "1", "1", "1"]}}}}, {"name": "StatefulPartitionedCall/functional_1_1/conv3_block4_2_relu_1/Relu", "op": "_FusedConv2D", "input": ["StatefulPartitionedCall/functional_1_1/conv3_block4_1_relu_1/Relu", "StatefulPartitionedCall/functional_1_1/conv3_block4_2_conv_1/convolution/merged_input", "StatefulPartitionedCall/functional_1_1/conv3_block4_2_bn_1/batchnorm/sub"], "device": "/device:CPU:0", "attr": {"num_host_args": {"i": "0"}, "data_format": {"s": "TkhXQw=="}, "filter_format": {"s": "SFdJTw=="}, "strides": {"list": {"i": ["1", "1", "1", "1"]}}, "num_args": {"i": "1"}, "fused_ops": {"list": {"s": ["Qmlhc0FkZA==", "UmVsdQ=="]}}, "TArgs": {"list": {"type": ["DT_FLOAT"]}}, "padding": {"s": "U0FNRQ=="}, "use_cudnn_on_gpu": {"b": true}, "leakyrelu_alpha": {"f": 0.2}, "epsilon": {"f": 0.0}, "T": {"type": "DT_FLOAT"}, "explicit_paddings": {"list": {}}, "dilations": {"list": {"i": ["1", "1", "1", "1"]}}}}, {"name": "StatefulPartitionedCall/functional_1_1/conv3_block4_3_bn_1/batchnorm/add_1", "op": "_FusedConv2D", "input": ["StatefulPartitionedCall/functional_1_1/conv3_block4_2_relu_1/Relu", "StatefulPartitionedCall/functional_1_1/conv3_block4_3_conv_1/convolution/merged_input", "StatefulPartitionedCall/functional_1_1/conv3_block4_3_bn_1/batchnorm/sub"], "device": "/device:CPU:0", "attr": {"num_host_args": {"i": "0"}, "data_format": {"s": "TkhXQw=="}, "filter_format": {"s": "SFdJTw=="}, "fused_ops": {"list": {"s": ["Qmlhc0FkZA=="]}}, "num_args": {"i": "1"}, "strides": {"list": {"i": ["1", "1", "1", "1"]}}, "TArgs": {"list": {"type": ["DT_FLOAT"]}}, "padding": {"s": "VkFMSUQ="}, "use_cudnn_on_gpu": {"b": true}, "leakyrelu_alpha": {"f": 0.2}, "epsilon": {"f": 0.0}, "T": {"type": "DT_FLOAT"}, "explicit_paddings": {"list": {}}, "dilations": {"list": {"i": ["1", "1", "1", "1"]}}}}, {"name": "StatefulPartitionedCall/functional_1_1/conv3_block4_add_1/Add", "op": "AddV2", "input": ["StatefulPartitionedCall/functional_1_1/conv3_block3_out_1/Relu", "StatefulPartitionedCall/functional_1_1/conv3_block4_3_bn_1/batchnorm/add_1"], "attr": {"T": {"type": "DT_FLOAT"}}}, {"name": "StatefulPartitionedCall/functional_1_1/conv3_block4_out_1/Relu", "op": "Relu", "input": ["StatefulPartitionedCall/functional_1_1/conv3_block4_add_1/Add"], "attr": {"T": {"type": "DT_FLOAT"}}}, {"name": "StatefulPartitionedCall/functional_1_1/conv4_block1_0_bn_1/batchnorm/add_1", "op": "_FusedConv2D", "input": ["StatefulPartitionedCall/functional_1_1/conv3_block4_out_1/Relu", "StatefulPartitionedCall/functional_1_1/conv4_block1_0_conv_1/convolution/merged_input", "StatefulPartitionedCall/functional_1_1/conv4_block1_0_bn_1/batchnorm/sub"], "device": "/device:CPU:0", "attr": {"num_host_args": {"i": "0"}, "data_format": {"s": "TkhXQw=="}, "filter_format": {"s": "SFdJTw=="}, "fused_ops": {"list": {"s": ["Qmlhc0FkZA=="]}}, "num_args": {"i": "1"}, "strides": {"list": {"i": ["1", "2", "2", "1"]}}, "TArgs": {"list": {"type": ["DT_FLOAT"]}}, "padding": {"s": "VkFMSUQ="}, "use_cudnn_on_gpu": {"b": true}, "leakyrelu_alpha": {"f": 0.2}, "epsilon": {"f": 0.0}, "T": {"type": "DT_FLOAT"}, "explicit_paddings": {"list": {}}, "dilations": {"list": {"i": ["1", "1", "1", "1"]}}}}, {"name": "StatefulPartitionedCall/functional_1_1/conv4_block1_1_relu_1/Relu", "op": "_FusedConv2D", "input": ["StatefulPartitionedCall/functional_1_1/conv3_block4_out_1/Relu", "StatefulPartitionedCall/functional_1_1/conv4_block1_1_conv_1/convolution/merged_input", "StatefulPartitionedCall/functional_1_1/conv4_block1_1_bn_1/batchnorm/sub"], "device": "/device:CPU:0", "attr": {"num_host_args": {"i": "0"}, "data_format": {"s": "TkhXQw=="}, "filter_format": {"s": "SFdJTw=="}, "strides": {"list": {"i": ["1", "2", "2", "1"]}}, "num_args": {"i": "1"}, "fused_ops": {"list": {"s": ["Qmlhc0FkZA==", "UmVsdQ=="]}}, "TArgs": {"list": {"type": ["DT_FLOAT"]}}, "padding": {"s": "VkFMSUQ="}, "use_cudnn_on_gpu": {"b": true}, "leakyrelu_alpha": {"f": 0.2}, "epsilon": {"f": 0.0}, "T": {"type": "DT_FLOAT"}, "explicit_paddings": {"list": {}}, "dilations": {"list": {"i": ["1", "1", "1", "1"]}}}}, {"name": "StatefulPartitionedCall/functional_1_1/conv4_block1_2_relu_1/Relu", "op": "_FusedConv2D", "input": ["StatefulPartitionedCall/functional_1_1/conv4_block1_1_relu_1/Relu", "StatefulPartitionedCall/functional_1_1/conv4_block1_2_conv_1/convolution/merged_input", "StatefulPartitionedCall/functional_1_1/conv4_block1_2_bn_1/batchnorm/sub"], "device": "/device:CPU:0", "attr": {"num_host_args": {"i": "0"}, "data_format": {"s": "TkhXQw=="}, "filter_format": {"s": "SFdJTw=="}, "strides": {"list": {"i": ["1", "1", "1", "1"]}}, "num_args": {"i": "1"}, "fused_ops": {"list": {"s": ["Qmlhc0FkZA==", "UmVsdQ=="]}}, "TArgs": {"list": {"type": ["DT_FLOAT"]}}, "padding": {"s": "U0FNRQ=="}, "use_cudnn_on_gpu": {"b": true}, "leakyrelu_alpha": {"f": 0.2}, "epsilon": {"f": 0.0}, "T": {"type": "DT_FLOAT"}, "explicit_paddings": {"list": {}}, "dilations": {"list": {"i": ["1", "1", "1", "1"]}}}}, {"name": "StatefulPartitionedCall/functional_1_1/conv4_block1_3_bn_1/batchnorm/add_1", "op": "_FusedConv2D", "input": ["StatefulPartitionedCall/functional_1_1/conv4_block1_2_relu_1/Relu", "StatefulPartitionedCall/functional_1_1/conv4_block1_3_conv_1/convolution/merged_input", "StatefulPartitionedCall/functional_1_1/conv4_block1_3_bn_1/batchnorm/sub"], "device": "/device:CPU:0", "attr": {"num_host_args": {"i": "0"}, "data_format": {"s": "TkhXQw=="}, "filter_format": {"s": "SFdJTw=="}, "strides": {"list": {"i": ["1", "1", "1", "1"]}}, "num_args": {"i": "1"}, "fused_ops": {"list": {"s": ["Qmlhc0FkZA=="]}}, "TArgs": {"list": {"type": ["DT_FLOAT"]}}, "padding": {"s": "VkFMSUQ="}, "use_cudnn_on_gpu": {"b": true}, "leakyrelu_alpha": {"f": 0.2}, "epsilon": {"f": 0.0}, "T": {"type": "DT_FLOAT"}, "explicit_paddings": {"list": {}}, "dilations": {"list": {"i": ["1", "1", "1", "1"]}}}}, {"name": "StatefulPartitionedCall/functional_1_1/conv4_block1_add_1/Add", "op": "AddV2", "input": ["StatefulPartitionedCall/functional_1_1/conv4_block1_0_bn_1/batchnorm/add_1", "StatefulPartitionedCall/functional_1_1/conv4_block1_3_bn_1/batchnorm/add_1"], "attr": {"T": {"type": "DT_FLOAT"}}}, {"name": "StatefulPartitionedCall/functional_1_1/conv4_block1_out_1/Relu", "op": "Relu", "input": ["StatefulPartitionedCall/functional_1_1/conv4_block1_add_1/Add"], "attr": {"T": {"type": "DT_FLOAT"}}}, {"name": "StatefulPartitionedCall/functional_1_1/conv4_block2_1_relu_1/Relu", "op": "_FusedConv2D", "input": ["StatefulPartitionedCall/functional_1_1/conv4_block1_out_1/Relu", "StatefulPartitionedCall/functional_1_1/conv4_block2_1_conv_1/convolution/merged_input", "StatefulPartitionedCall/functional_1_1/conv4_block2_1_bn_1/batchnorm/sub"], "device": "/device:CPU:0", "attr": {"num_host_args": {"i": "0"}, "data_format": {"s": "TkhXQw=="}, "filter_format": {"s": "SFdJTw=="}, "strides": {"list": {"i": ["1", "1", "1", "1"]}}, "num_args": {"i": "1"}, "fused_ops": {"list": {"s": ["Qmlhc0FkZA==", "UmVsdQ=="]}}, "TArgs": {"list": {"type": ["DT_FLOAT"]}}, "padding": {"s": "VkFMSUQ="}, "use_cudnn_on_gpu": {"b": true}, "leakyrelu_alpha": {"f": 0.2}, "epsilon": {"f": 0.0}, "T": {"type": "DT_FLOAT"}, "explicit_paddings": {"list": {}}, "dilations": {"list": {"i": ["1", "1", "1", "1"]}}}}, {"name": "StatefulPartitionedCall/functional_1_1/conv4_block2_2_relu_1/Relu", "op": "_FusedConv2D", "input": ["StatefulPartitionedCall/functional_1_1/conv4_block2_1_relu_1/Relu", "StatefulPartitionedCall/functional_1_1/conv4_block2_2_conv_1/convolution/merged_input", "StatefulPartitionedCall/functional_1_1/conv4_block2_2_bn_1/batchnorm/sub"], "device": "/device:CPU:0", "attr": {"num_host_args": {"i": "0"}, "data_format": {"s": "TkhXQw=="}, "filter_format": {"s": "SFdJTw=="}, "fused_ops": {"list": {"s": ["Qmlhc0FkZA==", "UmVsdQ=="]}}, "num_args": {"i": "1"}, "strides": {"list": {"i": ["1", "1", "1", "1"]}}, "TArgs": {"list": {"type": ["DT_FLOAT"]}}, "padding": {"s": "U0FNRQ=="}, "use_cudnn_on_gpu": {"b": true}, "leakyrelu_alpha": {"f": 0.2}, "epsilon": {"f": 0.0}, "T": {"type": "DT_FLOAT"}, "explicit_paddings": {"list": {}}, "dilations": {"list": {"i": ["1", "1", "1", "1"]}}}}, {"name": "StatefulPartitionedCall/functional_1_1/conv4_block2_3_bn_1/batchnorm/add_1", "op": "_FusedConv2D", "input": ["StatefulPartitionedCall/functional_1_1/conv4_block2_2_relu_1/Relu", "StatefulPartitionedCall/functional_1_1/conv4_block2_3_conv_1/convolution/merged_input", "StatefulPartitionedCall/functional_1_1/conv4_block2_3_bn_1/batchnorm/sub"], "device": "/device:CPU:0", "attr": {"num_host_args": {"i": "0"}, "data_format": {"s": "TkhXQw=="}, "filter_format": {"s": "SFdJTw=="}, "strides": {"list": {"i": ["1", "1", "1", "1"]}}, "num_args": {"i": "1"}, "fused_ops": {"list": {"s": ["Qmlhc0FkZA=="]}}, "TArgs": {"list": {"type": ["DT_FLOAT"]}}, "padding": {"s": "VkFMSUQ="}, "use_cudnn_on_gpu": {"b": true}, "leakyrelu_alpha": {"f": 0.2}, "epsilon": {"f": 0.0}, "T": {"type": "DT_FLOAT"}, "explicit_paddings": {"list": {}}, "dilations": {"list": {"i": ["1", "1", "1", "1"]}}}}, {"name": "StatefulPartitionedCall/functional_1_1/conv4_block2_add_1/Add", "op": "AddV2", "input": ["StatefulPartitionedCall/functional_1_1/conv4_block1_out_1/Relu", "StatefulPartitionedCall/functional_1_1/conv4_block2_3_bn_1/batchnorm/add_1"], "attr": {"T": {"type": "DT_FLOAT"}}}, {"name": "StatefulPartitionedCall/functional_1_1/conv4_block2_out_1/Relu", "op": "Relu", "input": ["StatefulPartitionedCall/functional_1_1/conv4_block2_add_1/Add"], "attr": {"T": {"type": "DT_FLOAT"}}}, {"name": "StatefulPartitionedCall/functional_1_1/conv4_block3_1_relu_1/Relu", "op": "_FusedConv2D", "input": ["StatefulPartitionedCall/functional_1_1/conv4_block2_out_1/Relu", "StatefulPartitionedCall/functional_1_1/conv4_block3_1_conv_1/convolution/merged_input", "StatefulPartitionedCall/functional_1_1/conv4_block3_1_bn_1/batchnorm/sub"], "device": "/device:CPU:0", "attr": {"num_host_args": {"i": "0"}, "data_format": {"s": "TkhXQw=="}, "filter_format": {"s": "SFdJTw=="}, "fused_ops": {"list": {"s": ["Qmlhc0FkZA==", "UmVsdQ=="]}}, "num_args": {"i": "1"}, "strides": {"list": {"i": ["1", "1", "1", "1"]}}, "TArgs": {"list": {"type": ["DT_FLOAT"]}}, "padding": {"s": "VkFMSUQ="}, "use_cudnn_on_gpu": {"b": true}, "leakyrelu_alpha": {"f": 0.2}, "epsilon": {"f": 0.0}, "T": {"type": "DT_FLOAT"}, "explicit_paddings": {"list": {}}, "dilations": {"list": {"i": ["1", "1", "1", "1"]}}}}, {"name": "StatefulPartitionedCall/functional_1_1/conv4_block3_2_relu_1/Relu", "op": "_FusedConv2D", "input": ["StatefulPartitionedCall/functional_1_1/conv4_block3_1_relu_1/Relu", "StatefulPartitionedCall/functional_1_1/conv4_block3_2_conv_1/convolution/merged_input", "StatefulPartitionedCall/functional_1_1/conv4_block3_2_bn_1/batchnorm/sub"], "device": "/device:CPU:0", "attr": {"num_host_args": {"i": "0"}, "data_format": {"s": "TkhXQw=="}, "filter_format": {"s": "SFdJTw=="}, "strides": {"list": {"i": ["1", "1", "1", "1"]}}, "num_args": {"i": "1"}, "fused_ops": {"list": {"s": ["Qmlhc0FkZA==", "UmVsdQ=="]}}, "TArgs": {"list": {"type": ["DT_FLOAT"]}}, "padding": {"s": "U0FNRQ=="}, "use_cudnn_on_gpu": {"b": true}, "leakyrelu_alpha": {"f": 0.2}, "epsilon": {"f": 0.0}, "T": {"type": "DT_FLOAT"}, "explicit_paddings": {"list": {}}, "dilations": {"list": {"i": ["1", "1", "1", "1"]}}}}, {"name": "StatefulPartitionedCall/functional_1_1/conv4_block3_3_bn_1/batchnorm/add_1", "op": "_FusedConv2D", "input": ["StatefulPartitionedCall/functional_1_1/conv4_block3_2_relu_1/Relu", "StatefulPartitionedCall/functional_1_1/conv4_block3_3_conv_1/convolution/merged_input", "StatefulPartitionedCall/functional_1_1/conv4_block3_3_bn_1/batchnorm/sub"], "device": "/device:CPU:0", "attr": {"num_host_args": {"i": "0"}, "data_format": {"s": "TkhXQw=="}, "filter_format": {"s": "SFdJTw=="}, "fused_ops": {"list": {"s": ["Qmlhc0FkZA=="]}}, "num_args": {"i": "1"}, "strides": {"list": {"i": ["1", "1", "1", "1"]}}, "TArgs": {"list": {"type": ["DT_FLOAT"]}}, "padding": {"s": "VkFMSUQ="}, "use_cudnn_on_gpu": {"b": true}, "leakyrelu_alpha": {"f": 0.2}, "epsilon": {"f": 0.0}, "T": {"type": "DT_FLOAT"}, "explicit_paddings": {"list": {}}, "dilations": {"list": {"i": ["1", "1", "1", "1"]}}}}, {"name": "StatefulPartitionedCall/functional_1_1/conv4_block3_add_1/Add", "op": "AddV2", "input": ["StatefulPartitionedCall/functional_1_1/conv4_block2_out_1/Relu", "StatefulPartitionedCall/functional_1_1/conv4_block3_3_bn_1/batchnorm/add_1"], "attr": {"T": {"type": "DT_FLOAT"}}}, {"name": "StatefulPartitionedCall/functional_1_1/conv4_block3_out_1/Relu", "op": "Relu", "input": ["StatefulPartitionedCall/functional_1_1/conv4_block3_add_1/Add"], "attr": {"T": {"type": "DT_FLOAT"}}}, {"name": "StatefulPartitionedCall/functional_1_1/conv4_block4_1_relu_1/Relu", "op": "_FusedConv2D", "input": ["StatefulPartitionedCall/functional_1_1/conv4_block3_out_1/Relu", "StatefulPartitionedCall/functional_1_1/conv4_block4_1_conv_1/convolution/merged_input", "StatefulPartitionedCall/functional_1_1/conv4_block4_1_bn_1/batchnorm/sub"], "device": "/device:CPU:0", "attr": {"num_host_args": {"i": "0"}, "data_format": {"s": "TkhXQw=="}, "filter_format": {"s": "SFdJTw=="}, "fused_ops": {"list": {"s": ["Qmlhc0FkZA==", "UmVsdQ=="]}}, "num_args": {"i": "1"}, "strides": {"list": {"i": ["1", "1", "1", "1"]}}, "TArgs": {"list": {"type": ["DT_FLOAT"]}}, "padding": {"s": "VkFMSUQ="}, "use_cudnn_on_gpu": {"b": true}, "leakyrelu_alpha": {"f": 0.2}, "epsilon": {"f": 0.0}, "T": {"type": "DT_FLOAT"}, "explicit_paddings": {"list": {}}, "dilations": {"list": {"i": ["1", "1", "1", "1"]}}}}, {"name": "StatefulPartitionedCall/functional_1_1/conv4_block4_2_relu_1/Relu", "op": "_FusedConv2D", "input": ["StatefulPartitionedCall/functional_1_1/conv4_block4_1_relu_1/Relu", "StatefulPartitionedCall/functional_1_1/conv4_block4_2_conv_1/convolution/merged_input", "StatefulPartitionedCall/functional_1_1/conv4_block4_2_bn_1/batchnorm/sub"], "device": "/device:CPU:0", "attr": {"num_host_args": {"i": "0"}, "data_format": {"s": "TkhXQw=="}, "filter_format": {"s": "SFdJTw=="}, "strides": {"list": {"i": ["1", "1", "1", "1"]}}, "num_args": {"i": "1"}, "fused_ops": {"list": {"s": ["Qmlhc0FkZA==", "UmVsdQ=="]}}, "TArgs": {"list": {"type": ["DT_FLOAT"]}}, "padding": {"s": "U0FNRQ=="}, "use_cudnn_on_gpu": {"b": true}, "leakyrelu_alpha": {"f": 0.2}, "epsilon": {"f": 0.0}, "T": {"type": "DT_FLOAT"}, "explicit_paddings": {"list": {}}, "dilations": {"list": {"i": ["1", "1", "1", "1"]}}}}, {"name": "StatefulPartitionedCall/functional_1_1/conv4_block4_3_bn_1/batchnorm/add_1", "op": "_FusedConv2D", "input": ["StatefulPartitionedCall/functional_1_1/conv4_block4_2_relu_1/Relu", "StatefulPartitionedCall/functional_1_1/conv4_block4_3_conv_1/convolution/merged_input", "StatefulPartitionedCall/functional_1_1/conv4_block4_3_bn_1/batchnorm/sub"], "device": "/device:CPU:0", "attr": {"num_host_args": {"i": "0"}, "data_format": {"s": "TkhXQw=="}, "filter_format": {"s": "SFdJTw=="}, "strides": {"list": {"i": ["1", "1", "1", "1"]}}, "num_args": {"i": "1"}, "fused_ops": {"list": {"s": ["Qmlhc0FkZA=="]}}, "TArgs": {"list": {"type": ["DT_FLOAT"]}}, "padding": {"s": "VkFMSUQ="}, "use_cudnn_on_gpu": {"b": true}, "leakyrelu_alpha": {"f": 0.2}, "epsilon": {"f": 0.0}, "T": {"type": "DT_FLOAT"}, "explicit_paddings": {"list": {}}, "dilations": {"list": {"i": ["1", "1", "1", "1"]}}}}, {"name": "StatefulPartitionedCall/functional_1_1/conv4_block4_add_1/Add", "op": "AddV2", "input": ["StatefulPartitionedCall/functional_1_1/conv4_block3_out_1/Relu", "StatefulPartitionedCall/functional_1_1/conv4_block4_3_bn_1/batchnorm/add_1"], "attr": {"T": {"type": "DT_FLOAT"}}}, {"name": "StatefulPartitionedCall/functional_1_1/conv4_block4_out_1/Relu", "op": "Relu", "input": ["StatefulPartitionedCall/functional_1_1/conv4_block4_add_1/Add"], "attr": {"T": {"type": "DT_FLOAT"}}}, {"name": "StatefulPartitionedCall/functional_1_1/conv4_block5_1_relu_1/Relu", "op": "_FusedConv2D", "input": ["StatefulPartitionedCall/functional_1_1/conv4_block4_out_1/Relu", "StatefulPartitionedCall/functional_1_1/conv4_block5_1_conv_1/convolution/merged_input", "StatefulPartitionedCall/functional_1_1/conv4_block5_1_bn_1/batchnorm/sub"], "device": "/device:CPU:0", "attr": {"num_host_args": {"i": "0"}, "data_format": {"s": "TkhXQw=="}, "filter_format": {"s": "SFdJTw=="}, "fused_ops": {"list": {"s": ["Qmlhc0FkZA==", "UmVsdQ=="]}}, "num_args": {"i": "1"}, "strides": {"list": {"i": ["1", "1", "1", "1"]}}, "TArgs": {"list": {"type": ["DT_FLOAT"]}}, "padding": {"s": "VkFMSUQ="}, "use_cudnn_on_gpu": {"b": true}, "leakyrelu_alpha": {"f": 0.2}, "epsilon": {"f": 0.0}, "T": {"type": "DT_FLOAT"}, "explicit_paddings": {"list": {}}, "dilations": {"list": {"i": ["1", "1", "1", "1"]}}}}, {"name": "StatefulPartitionedCall/functional_1_1/conv4_block5_2_relu_1/Relu", "op": "_FusedConv2D", "input": ["StatefulPartitionedCall/functional_1_1/conv4_block5_1_relu_1/Relu", "StatefulPartitionedCall/functional_1_1/conv4_block5_2_conv_1/convolution/merged_input", "StatefulPartitionedCall/functional_1_1/conv4_block5_2_bn_1/batchnorm/sub"], "device": "/device:CPU:0", "attr": {"num_host_args": {"i": "0"}, "data_format": {"s": "TkhXQw=="}, "filter_format": {"s": "SFdJTw=="}, "strides": {"list": {"i": ["1", "1", "1", "1"]}}, "num_args": {"i": "1"}, "fused_ops": {"list": {"s": ["Qmlhc0FkZA==", "UmVsdQ=="]}}, "TArgs": {"list": {"type": ["DT_FLOAT"]}}, "padding": {"s": "U0FNRQ=="}, "use_cudnn_on_gpu": {"b": true}, "leakyrelu_alpha": {"f": 0.2}, "epsilon": {"f": 0.0}, "T": {"type": "DT_FLOAT"}, "explicit_paddings": {"list": {}}, "dilations": {"list": {"i": ["1", "1", "1", "1"]}}}}, {"name": "StatefulPartitionedCall/functional_1_1/conv4_block5_3_bn_1/batchnorm/add_1", "op": "_FusedConv2D", "input": ["StatefulPartitionedCall/functional_1_1/conv4_block5_2_relu_1/Relu", "StatefulPartitionedCall/functional_1_1/conv4_block5_3_conv_1/convolution/merged_input", "StatefulPartitionedCall/functional_1_1/conv4_block5_3_bn_1/batchnorm/sub"], "device": "/device:CPU:0", "attr": {"num_host_args": {"i": "0"}, "data_format": {"s": "TkhXQw=="}, "filter_format": {"s": "SFdJTw=="}, "fused_ops": {"list": {"s": ["Qmlhc0FkZA=="]}}, "num_args": {"i": "1"}, "strides": {"list": {"i": ["1", "1", "1", "1"]}}, "TArgs": {"list": {"type": ["DT_FLOAT"]}}, "padding": {"s": "VkFMSUQ="}, "use_cudnn_on_gpu": {"b": true}, "leakyrelu_alpha": {"f": 0.2}, "epsilon": {"f": 0.0}, "T": {"type": "DT_FLOAT"}, "explicit_paddings": {"list": {}}, "dilations": {"list": {"i": ["1", "1", "1", "1"]}}}}, {"name": "StatefulPartitionedCall/functional_1_1/conv4_block5_add_1/Add", "op": "AddV2", "input": ["StatefulPartitionedCall/functional_1_1/conv4_block4_out_1/Relu", "StatefulPartitionedCall/functional_1_1/conv4_block5_3_bn_1/batchnorm/add_1"], "attr": {"T": {"type": "DT_FLOAT"}}}, {"name": "StatefulPartitionedCall/functional_1_1/conv4_block5_out_1/Relu", "op": "Relu", "input": ["StatefulPartitionedCall/functional_1_1/conv4_block5_add_1/Add"], "attr": {"T": {"type": "DT_FLOAT"}}}, {"name": "StatefulPartitionedCall/functional_1_1/conv4_block6_1_relu_1/Relu", "op": "_FusedConv2D", "input": ["StatefulPartitionedCall/functional_1_1/conv4_block5_out_1/Relu", "StatefulPartitionedCall/functional_1_1/conv4_block6_1_conv_1/convolution/merged_input", "StatefulPartitionedCall/functional_1_1/conv4_block6_1_bn_1/batchnorm/sub"], "device": "/device:CPU:0", "attr": {"num_host_args": {"i": "0"}, "data_format": {"s": "TkhXQw=="}, "filter_format": {"s": "SFdJTw=="}, "fused_ops": {"list": {"s": ["Qmlhc0FkZA==", "UmVsdQ=="]}}, "num_args": {"i": "1"}, "strides": {"list": {"i": ["1", "1", "1", "1"]}}, "TArgs": {"list": {"type": ["DT_FLOAT"]}}, "padding": {"s": "VkFMSUQ="}, "use_cudnn_on_gpu": {"b": true}, "leakyrelu_alpha": {"f": 0.2}, "epsilon": {"f": 0.0}, "T": {"type": "DT_FLOAT"}, "explicit_paddings": {"list": {}}, "dilations": {"list": {"i": ["1", "1", "1", "1"]}}}}, {"name": "StatefulPartitionedCall/functional_1_1/conv4_block6_2_relu_1/Relu", "op": "_FusedConv2D", "input": ["StatefulPartitionedCall/functional_1_1/conv4_block6_1_relu_1/Relu", "StatefulPartitionedCall/functional_1_1/conv4_block6_2_conv_1/convolution/merged_input", "StatefulPartitionedCall/functional_1_1/conv4_block6_2_bn_1/batchnorm/sub"], "device": "/device:CPU:0", "attr": {"num_host_args": {"i": "0"}, "data_format": {"s": "TkhXQw=="}, "filter_format": {"s": "SFdJTw=="}, "strides": {"list": {"i": ["1", "1", "1", "1"]}}, "num_args": {"i": "1"}, "fused_ops": {"list": {"s": ["Qmlhc0FkZA==", "UmVsdQ=="]}}, "TArgs": {"list": {"type": ["DT_FLOAT"]}}, "padding": {"s": "U0FNRQ=="}, "use_cudnn_on_gpu": {"b": true}, "leakyrelu_alpha": {"f": 0.2}, "epsilon": {"f": 0.0}, "T": {"type": "DT_FLOAT"}, "explicit_paddings": {"list": {}}, "dilations": {"list": {"i": ["1", "1", "1", "1"]}}}}, {"name": "StatefulPartitionedCall/functional_1_1/conv4_block6_3_bn_1/batchnorm/add_1", "op": "_FusedConv2D", "input": ["StatefulPartitionedCall/functional_1_1/conv4_block6_2_relu_1/Relu", "StatefulPartitionedCall/functional_1_1/conv4_block6_3_conv_1/convolution/merged_input", "StatefulPartitionedCall/functional_1_1/conv4_block6_3_bn_1/batchnorm/sub"], "device": "/device:CPU:0", "attr": {"num_host_args": {"i": "0"}, "data_format": {"s": "TkhXQw=="}, "filter_format": {"s": "SFdJTw=="}, "strides": {"list": {"i": ["1", "1", "1", "1"]}}, "num_args": {"i": "1"}, "fused_ops": {"list": {"s": ["Qmlhc0FkZA=="]}}, "TArgs": {"list": {"type": ["DT_FLOAT"]}}, "padding": {"s": "VkFMSUQ="}, "use_cudnn_on_gpu": {"b": true}, "leakyrelu_alpha": {"f": 0.2}, "epsilon": {"f": 0.0}, "T": {"type": "DT_FLOAT"}, "explicit_paddings": {"list": {}}, "dilations": {"list": {"i": ["1", "1", "1", "1"]}}}}, {"name": "StatefulPartitionedCall/functional_1_1/conv4_block6_add_1/Add", "op": "AddV2", "input": ["StatefulPartitionedCall/functional_1_1/conv4_block5_out_1/Relu", "StatefulPartitionedCall/functional_1_1/conv4_block6_3_bn_1/batchnorm/add_1"], "attr": {"T": {"type": "DT_FLOAT"}}}, {"name": "StatefulPartitionedCall/functional_1_1/conv4_block6_out_1/Relu", "op": "Relu", "input": ["StatefulPartitionedCall/functional_1_1/conv4_block6_add_1/Add"], "attr": {"T": {"type": "DT_FLOAT"}}}, {"name": "StatefulPartitionedCall/functional_1_1/conv5_block1_0_bn_1/batchnorm/add_1", "op": "_FusedConv2D", "input": ["StatefulPartitionedCall/functional_1_1/conv4_block6_out_1/Relu", "StatefulPartitionedCall/functional_1_1/conv5_block1_0_conv_1/convolution/merged_input", "StatefulPartitionedCall/functional_1_1/conv5_block1_0_bn_1/batchnorm/sub"], "device": "/device:CPU:0", "attr": {"num_host_args": {"i": "0"}, "data_format": {"s": "TkhXQw=="}, "filter_format": {"s": "SFdJTw=="}, "strides": {"list": {"i": ["1", "2", "2", "1"]}}, "num_args": {"i": "1"}, "fused_ops": {"list": {"s": ["Qmlhc0FkZA=="]}}, "TArgs": {"list": {"type": ["DT_FLOAT"]}}, "padding": {"s": "VkFMSUQ="}, "use_cudnn_on_gpu": {"b": true}, "leakyrelu_alpha": {"f": 0.2}, "epsilon": {"f": 0.0}, "T": {"type": "DT_FLOAT"}, "explicit_paddings": {"list": {}}, "dilations": {"list": {"i": ["1", "1", "1", "1"]}}}}, {"name": "StatefulPartitionedCall/functional_1_1/conv5_block1_1_relu_1/Relu", "op": "_FusedConv2D", "input": ["StatefulPartitionedCall/functional_1_1/conv4_block6_out_1/Relu", "StatefulPartitionedCall/functional_1_1/conv5_block1_1_conv_1/convolution/merged_input", "StatefulPartitionedCall/functional_1_1/conv5_block1_1_bn_1/batchnorm/sub"], "device": "/device:CPU:0", "attr": {"num_host_args": {"i": "0"}, "data_format": {"s": "TkhXQw=="}, "filter_format": {"s": "SFdJTw=="}, "strides": {"list": {"i": ["1", "2", "2", "1"]}}, "num_args": {"i": "1"}, "fused_ops": {"list": {"s": ["Qmlhc0FkZA==", "UmVsdQ=="]}}, "TArgs": {"list": {"type": ["DT_FLOAT"]}}, "padding": {"s": "VkFMSUQ="}, "use_cudnn_on_gpu": {"b": true}, "leakyrelu_alpha": {"f": 0.2}, "epsilon": {"f": 0.0}, "T": {"type": "DT_FLOAT"}, "explicit_paddings": {"list": {}}, "dilations": {"list": {"i": ["1", "1", "1", "1"]}}}}, {"name": "StatefulPartitionedCall/functional_1_1/conv5_block1_2_relu_1/Relu", "op": "_FusedConv2D", "input": ["StatefulPartitionedCall/functional_1_1/conv5_block1_1_relu_1/Relu", "StatefulPartitionedCall/functional_1_1/conv5_block1_2_conv_1/convolution/merged_input", "StatefulPartitionedCall/functional_1_1/conv5_block1_2_bn_1/batchnorm/sub"], "device": "/device:CPU:0", "attr": {"num_host_args": {"i": "0"}, "data_format": {"s": "TkhXQw=="}, "filter_format": {"s": "SFdJTw=="}, "strides": {"list": {"i": ["1", "1", "1", "1"]}}, "num_args": {"i": "1"}, "fused_ops": {"list": {"s": ["Qmlhc0FkZA==", "UmVsdQ=="]}}, "TArgs": {"list": {"type": ["DT_FLOAT"]}}, "padding": {"s": "U0FNRQ=="}, "use_cudnn_on_gpu": {"b": true}, "leakyrelu_alpha": {"f": 0.2}, "epsilon": {"f": 0.0}, "T": {"type": "DT_FLOAT"}, "explicit_paddings": {"list": {}}, "dilations": {"list": {"i": ["1", "1", "1", "1"]}}}}, {"name": "StatefulPartitionedCall/functional_1_1/conv5_block1_3_bn_1/batchnorm/add_1", "op": "_FusedConv2D", "input": ["StatefulPartitionedCall/functional_1_1/conv5_block1_2_relu_1/Relu", "StatefulPartitionedCall/functional_1_1/conv5_block1_3_conv_1/convolution/merged_input", "StatefulPartitionedCall/functional_1_1/conv5_block1_3_bn_1/batchnorm/sub"], "device": "/device:CPU:0", "attr": {"num_host_args": {"i": "0"}, "data_format": {"s": "TkhXQw=="}, "filter_format": {"s": "SFdJTw=="}, "fused_ops": {"list": {"s": ["Qmlhc0FkZA=="]}}, "num_args": {"i": "1"}, "strides": {"list": {"i": ["1", "1", "1", "1"]}}, "TArgs": {"list": {"type": ["DT_FLOAT"]}}, "padding": {"s": "VkFMSUQ="}, "use_cudnn_on_gpu": {"b": true}, "leakyrelu_alpha": {"f": 0.2}, "epsilon": {"f": 0.0}, "T": {"type": "DT_FLOAT"}, "explicit_paddings": {"list": {}}, "dilations": {"list": {"i": ["1", "1", "1", "1"]}}}}, {"name": "StatefulPartitionedCall/functional_1_1/conv5_block1_add_1/Add", "op": "AddV2", "input": ["StatefulPartitionedCall/functional_1_1/conv5_block1_0_bn_1/batchnorm/add_1", "StatefulPartitionedCall/functional_1_1/conv5_block1_3_bn_1/batchnorm/add_1"], "attr": {"T": {"type": "DT_FLOAT"}}}, {"name": "StatefulPartitionedCall/functional_1_1/conv5_block1_out_1/Relu", "op": "Relu", "input": ["StatefulPartitionedCall/functional_1_1/conv5_block1_add_1/Add"], "attr": {"T": {"type": "DT_FLOAT"}}}, {"name": "StatefulPartitionedCall/functional_1_1/conv5_block2_1_relu_1/Relu", "op": "_FusedConv2D", "input": ["StatefulPartitionedCall/functional_1_1/conv5_block1_out_1/Relu", "StatefulPartitionedCall/functional_1_1/conv5_block2_1_conv_1/convolution/merged_input", "StatefulPartitionedCall/functional_1_1/conv5_block2_1_bn_1/batchnorm/sub"], "device": "/device:CPU:0", "attr": {"num_host_args": {"i": "0"}, "data_format": {"s": "TkhXQw=="}, "filter_format": {"s": "SFdJTw=="}, "strides": {"list": {"i": ["1", "1", "1", "1"]}}, "num_args": {"i": "1"}, "fused_ops": {"list": {"s": ["Qmlhc0FkZA==", "UmVsdQ=="]}}, "TArgs": {"list": {"type": ["DT_FLOAT"]}}, "padding": {"s": "VkFMSUQ="}, "use_cudnn_on_gpu": {"b": true}, "leakyrelu_alpha": {"f": 0.2}, "epsilon": {"f": 0.0}, "T": {"type": "DT_FLOAT"}, "explicit_paddings": {"list": {}}, "dilations": {"list": {"i": ["1", "1", "1", "1"]}}}}, {"name": "StatefulPartitionedCall/functional_1_1/conv5_block2_2_relu_1/Relu", "op": "_FusedConv2D", "input": ["StatefulPartitionedCall/functional_1_1/conv5_block2_1_relu_1/Relu", "StatefulPartitionedCall/functional_1_1/conv5_block2_2_conv_1/convolution/merged_input", "StatefulPartitionedCall/functional_1_1/conv5_block2_2_bn_1/batchnorm/sub"], "device": "/device:CPU:0", "attr": {"num_host_args": {"i": "0"}, "data_format": {"s": "TkhXQw=="}, "filter_format": {"s": "SFdJTw=="}, "fused_ops": {"list": {"s": ["Qmlhc0FkZA==", "UmVsdQ=="]}}, "num_args": {"i": "1"}, "strides": {"list": {"i": ["1", "1", "1", "1"]}}, "TArgs": {"list": {"type": ["DT_FLOAT"]}}, "padding": {"s": "U0FNRQ=="}, "use_cudnn_on_gpu": {"b": true}, "leakyrelu_alpha": {"f": 0.2}, "epsilon": {"f": 0.0}, "T": {"type": "DT_FLOAT"}, "explicit_paddings": {"list": {}}, "dilations": {"list": {"i": ["1", "1", "1", "1"]}}}}, {"name": "StatefulPartitionedCall/functional_1_1/conv5_block2_3_bn_1/batchnorm/add_1", "op": "_FusedConv2D", "input": ["StatefulPartitionedCall/functional_1_1/conv5_block2_2_relu_1/Relu", "StatefulPartitionedCall/functional_1_1/conv5_block2_3_conv_1/convolution/merged_input", "StatefulPartitionedCall/functional_1_1/conv5_block2_3_bn_1/batchnorm/sub"], "device": "/device:CPU:0", "attr": {"num_host_args": {"i": "0"}, "data_format": {"s": "TkhXQw=="}, "filter_format": {"s": "SFdJTw=="}, "fused_ops": {"list": {"s": ["Qmlhc0FkZA=="]}}, "num_args": {"i": "1"}, "strides": {"list": {"i": ["1", "1", "1", "1"]}}, "TArgs": {"list": {"type": ["DT_FLOAT"]}}, "padding": {"s": "VkFMSUQ="}, "use_cudnn_on_gpu": {"b": true}, "leakyrelu_alpha": {"f": 0.2}, "epsilon": {"f": 0.0}, "T": {"type": "DT_FLOAT"}, "explicit_paddings": {"list": {}}, "dilations": {"list": {"i": ["1", "1", "1", "1"]}}}}, {"name": "StatefulPartitionedCall/functional_1_1/conv5_block2_add_1/Add", "op": "AddV2", "input": ["StatefulPartitionedCall/functional_1_1/conv5_block1_out_1/Relu", "StatefulPartitionedCall/functional_1_1/conv5_block2_3_bn_1/batchnorm/add_1"], "attr": {"T": {"type": "DT_FLOAT"}}}, {"name": "StatefulPartitionedCall/functional_1_1/conv5_block2_out_1/Relu", "op": "Relu", "input": ["StatefulPartitionedCall/functional_1_1/conv5_block2_add_1/Add"], "attr": {"T": {"type": "DT_FLOAT"}}}, {"name": "StatefulPartitionedCall/functional_1_1/conv5_block3_1_relu_1/Relu", "op": "_FusedConv2D", "input": ["StatefulPartitionedCall/functional_1_1/conv5_block2_out_1/Relu", "StatefulPartitionedCall/functional_1_1/conv5_block3_1_conv_1/convolution/merged_input", "StatefulPartitionedCall/functional_1_1/conv5_block3_1_bn_1/batchnorm/sub"], "device": "/device:CPU:0", "attr": {"num_host_args": {"i": "0"}, "data_format": {"s": "TkhXQw=="}, "filter_format": {"s": "SFdJTw=="}, "fused_ops": {"list": {"s": ["Qmlhc0FkZA==", "UmVsdQ=="]}}, "num_args": {"i": "1"}, "strides": {"list": {"i": ["1", "1", "1", "1"]}}, "TArgs": {"list": {"type": ["DT_FLOAT"]}}, "padding": {"s": "VkFMSUQ="}, "use_cudnn_on_gpu": {"b": true}, "leakyrelu_alpha": {"f": 0.2}, "epsilon": {"f": 0.0}, "T": {"type": "DT_FLOAT"}, "explicit_paddings": {"list": {}}, "dilations": {"list": {"i": ["1", "1", "1", "1"]}}}}, {"name": "StatefulPartitionedCall/functional_1_1/conv5_block3_2_relu_1/Relu", "op": "_FusedConv2D", "input": ["StatefulPartitionedCall/functional_1_1/conv5_block3_1_relu_1/Relu", "StatefulPartitionedCall/functional_1_1/conv5_block3_2_conv_1/convolution/merged_input", "StatefulPartitionedCall/functional_1_1/conv5_block3_2_bn_1/batchnorm/sub"], "device": "/device:CPU:0", "attr": {"num_host_args": {"i": "0"}, "data_format": {"s": "TkhXQw=="}, "filter_format": {"s": "SFdJTw=="}, "fused_ops": {"list": {"s": ["Qmlhc0FkZA==", "UmVsdQ=="]}}, "num_args": {"i": "1"}, "strides": {"list": {"i": ["1", "1", "1", "1"]}}, "TArgs": {"list": {"type": ["DT_FLOAT"]}}, "padding": {"s": "U0FNRQ=="}, "use_cudnn_on_gpu": {"b": true}, "leakyrelu_alpha": {"f": 0.2}, "epsilon": {"f": 0.0}, "T": {"type": "DT_FLOAT"}, "explicit_paddings": {"list": {}}, "dilations": {"list": {"i": ["1", "1", "1", "1"]}}}}, {"name": "StatefulPartitionedCall/functional_1_1/conv5_block3_3_bn_1/batchnorm/add_1", "op": "_FusedConv2D", "input": ["StatefulPartitionedCall/functional_1_1/conv5_block3_2_relu_1/Relu", "StatefulPartitionedCall/functional_1_1/conv5_block3_3_conv_1/convolution/merged_input", "StatefulPartitionedCall/functional_1_1/conv5_block3_3_bn_1/batchnorm/sub"], "device": "/device:CPU:0", "attr": {"num_host_args": {"i": "0"}, "data_format": {"s": "TkhXQw=="}, "filter_format": {"s": "SFdJTw=="}, "fused_ops": {"list": {"s": ["Qmlhc0FkZA=="]}}, "num_args": {"i": "1"}, "strides": {"list": {"i": ["1", "1", "1", "1"]}}, "TArgs": {"list": {"type": ["DT_FLOAT"]}}, "padding": {"s": "VkFMSUQ="}, "use_cudnn_on_gpu": {"b": true}, "leakyrelu_alpha": {"f": 0.2}, "epsilon": {"f": 0.0}, "T": {"type": "DT_FLOAT"}, "explicit_paddings": {"list": {}}, "dilations": {"list": {"i": ["1", "1", "1", "1"]}}}}, {"name": "StatefulPartitionedCall/functional_1_1/conv5_block3_add_1/Add", "op": "AddV2", "input": ["StatefulPartitionedCall/functional_1_1/conv5_block2_out_1/Relu", "StatefulPartitionedCall/functional_1_1/conv5_block3_3_bn_1/batchnorm/add_1"], "attr": {"T": {"type": "DT_FLOAT"}}}, {"name": "StatefulPartitionedCall/functional_1_1/conv5_block3_out_1/Relu", "op": "Relu", "input": ["StatefulPartitionedCall/functional_1_1/conv5_block3_add_1/Add"], "attr": {"T": {"type": "DT_FLOAT"}}}, {"name": "StatefulPartitionedCall/functional_1_1/global_average_pooling2d_1_1/Mean", "op": "Mean", "input": ["StatefulPartitionedCall/functional_1_1/conv5_block3_out_1/Relu", "StatefulPartitionedCall/functional_1_1/global_average_pooling2d_1_1/Mean/reduction_indices"], "attr": {"T": {"type": "DT_FLOAT"}, "Tidx": {"type": "DT_INT32"}, "keep_dims": {"b": false}}}, {"name": "StatefulPartitionedCall/functional_1_1/dense_2_1/Relu", "op": "_FusedMatMul", "input": ["StatefulPartitionedCall/functional_1_1/global_average_pooling2d_1_1/Mean", "StatefulPartitionedCall/functional_1_1/dense_2_1/Cast/ReadVariableOp", "StatefulPartitionedCall/functional_1_1/dense_2_1/BiasAdd/ReadVariableOp"], "device": "/device:CPU:0", "attr": {"transpose_a": {"b": false}, "transpose_b": {"b": false}, "fused_ops": {"list": {"s": ["Qmlhc0FkZA==", "UmVsdQ=="]}}, "num_args": {"i": "1"}, "leakyrelu_alpha": {"f": 0.2}, "epsilon": {"f": 0.0}, "T": {"type": "DT_FLOAT"}}}, {"name": "StatefulPartitionedCall/functional_1_1/dense_3_1/Add", "op": "_FusedMatMul", "input": ["StatefulPartitionedCall/functional_1_1/dense_2_1/Relu", "StatefulPartitionedCall/functional_1_1/dense_3_1/Cast/ReadVariableOp", "StatefulPartitionedCall/functional_1_1/dense_3_1/Add/ReadVariableOp"], "device": "/device:CPU:0", "attr": {"transpose_a": {"b": false}, "transpose_b": {"b": false}, "fused_ops": {"list": {"s": ["Qmlhc0FkZA=="]}}, "leakyrelu_alpha": {"f": 0.2}, "num_args": {"i": "1"}, "epsilon": {"f": 0.0}, "T": {"type": "DT_FLOAT"}}}, {"name": "StatefulPartitionedCall/functional_1_1/dense_3_1/Sigmoid", "op": "Sigmoid", "input": ["StatefulPartitionedCall/functional_1_1/dense_3_1/Add"], "attr": {"T": {"type": "DT_FLOAT"}}}, {"name": "Identity", "op": "Identity", "input": ["StatefulPartitionedCall/functional_1_1/dense_3_1/Sigmoid"], "attr": {"T": {"type": "DT_FLOAT"}}}], "library": {}, "versions": {"producer": 2129}}, "weightsManifest": [{"paths": ["group1-shard1of6.bin", "group1-shard2of6.bin", "group1-shard3of6.bin", "group1-shard4of6.bin", "group1-shard5of6.bin", "group1-shard6of6.bin"], "weights": [{"name": "StatefulPartitionedCall/functional_1_1/conv5_block1_0_conv_1/convolution/merged_input", "shape": [1, 1, 1024, 2048], "dtype": "float32", "quantization": {"dtype": "uint8", "min": -2.8207121849060055, "scale": 0.021532154083251952, "original_dtype": "float32"}}, {"name": "StatefulPartitionedCall/functional_1_1/conv5_block1_0_bn_1/batchnorm/sub", "shape": [1, 1, 1, 2048], "dtype": "float32", "quantization": {"dtype": "uint8", "min": -4.93301467147528, "scale": 0.03978237638286516, "original_dtype": "float32"}}, {"name": "StatefulPartitionedCall/functional_1_1/conv4_block1_0_conv_1/convolution/merged_input", "shape": [1, 1, 512, 1024], "dtype": "float32", "quantization": {"dtype": "uint8", "min": -0.4966628846000223, "scale": 0.004281576591379502, "original_dtype": "float32"}}, {"name": "StatefulPartitionedCall/functional_1_1/conv4_block1_0_bn_1/batchnorm/sub", "shape": [1, 1, 1, 1024], "dtype": "float32", "quantization": {"dtype": "uint8", "min": -3.297382964339911, "scale": 0.027943923426609413, "original_dtype": "float32"}}, {"name": "StatefulPartitionedCall/functional_1_1/conv3_block1_0_conv_1/convolution/merged_input", "shape": [1, 1, 256, 512], "dtype": "float32", "quantization": {"dtype": "uint8", "min": -0.9417599755174973, "scale": 0.006406530445697261, "original_dtype": "float32"}}, {"name": "StatefulPartitionedCall/functional_1_1/conv3_block1_0_bn_1/batchnorm/sub", "shape": [1, 1, 1, 512], "dtype": "float32", "quantization": {"dtype": "uint8", "min": -4.06717472076416, "scale": 0.041082572937011716, "original_dtype": "float32"}}, {"name": "StatefulPartitionedCall/functional_1_1/conv2_block1_0_conv_1/convolution/merged_input", "shape": [1, 1, 64, 256], "dtype": "float32", "quantization": {"dtype": "uint8", "min": -1.6714398496291216, "scale": 0.011370339113123277, "original_dtype": "float32"}}, {"name": "StatefulPartitionedCall/functional_1_1/conv2_block1_0_bn_1/batchnorm/sub", "shape": [1, 1, 1, 256], "dtype": "float32", "quantization": {"dtype": "uint8", "min": -5.861582232456581, "scale": 0.08373688903509402, "original_dtype": "float32"}}, {"name": "StatefulPartitionedCall/functional_1_1/conv1_pad_1/Const", "shape": [4, 2], "dtype": "int32"}, {"name": "StatefulPartitionedCall/functional_1_1/conv1_conv_1/convolution/ReadVariableOp", "shape": [7, 7, 3, 64], "dtype": "float32", "quantization": {"dtype": "uint8", "min": -0.6687967478060255, "scale": 0.005393522159726012, "original_dtype": "float32"}}, {"name": "StatefulPartitionedCall/functional_1_1/conv1_conv_1/Squeeze", "shape": [64], "dtype": "float32", "quantization": {"dtype": "uint8", "min": -4.4504184006878035e-09, "scale": 4.7344876603061743e-11, "original_dtype": "float32"}}, {"name": "StatefulPartitionedCall/functional_1_1/conv1_bn_1/batchnorm/mul", "shape": [1, 1, 1, 64], "dtype": "float32", "quantization": {"dtype": "uint8", "min": 0.00824530515819788, "scale": 0.00019163763625364678, "original_dtype": "float32"}}, {"name": "StatefulPartitionedCall/functional_1_1/conv1_bn_1/batchnorm/sub", "shape": [1, 1, 1, 64], "dtype": "float32", "quantization": {"dtype": "uint8", "min": -2.683772113276463, "scale": 0.03531279096416399, "original_dtype": "float32"}}, {"name": "StatefulPartitionedCall/functional_1_1/pool1_pad_1/Const", "shape": [4, 2], "dtype": "int32"}, {"name": "StatefulPartitionedCall/functional_1_1/conv2_block1_1_conv_1/convolution/merged_input", "shape": [1, 1, 64, 64], "dtype": "float32", "quantization": {"dtype": "uint8", "min": -0.8405866254778469, "scale": 0.004803352145587697, "original_dtype": "float32"}}, {"name": "StatefulPartitionedCall/functional_1_1/conv2_block1_1_bn_1/batchnorm/sub", "shape": [1, 1, 1, 64], "dtype": "float32", "quantization": {"dtype": "uint8", "min": -4.399525479709401, "scale": 0.03963536468206667, "original_dtype": "float32"}}, {"name": "StatefulPartitionedCall/functional_1_1/conv2_block1_2_conv_1/convolution/merged_input", "shape": [3, 3, 64, 64], "dtype": "float32", "quantization": {"dtype": "uint8", "min": -0.2626020487617044, "scale": 0.002225441091200885, "original_dtype": "float32"}}, {"name": "StatefulPartitionedCall/functional_1_1/conv2_block1_2_bn_1/batchnorm/sub", "shape": [1, 1, 1, 64], "dtype": "float32", "quantization": {"dtype": "uint8", "min": -2.525892498913933, "scale": 0.031183858011283126, "original_dtype": "float32"}}, {"name": "StatefulPartitionedCall/functional_1_1/conv2_block1_3_conv_1/convolution/merged_input", "shape": [1, 1, 64, 256], "dtype": "float32", "quantization": {"dtype": "uint8", "min": -1.7535503911037071, "scale": 0.013699612430497712, "original_dtype": "float32"}}, {"name": "StatefulPartitionedCall/functional_1_1/conv2_block1_3_bn_1/batchnorm/sub", "shape": [1, 1, 1, 256], "dtype": "float32", "quantization": {"dtype": "uint8", "min": -5.542488872303682, "scale": 0.04737169976327933, "original_dtype": "float32"}}, {"name": "StatefulPartitionedCall/functional_1_1/conv2_block2_1_conv_1/convolution/merged_input", "shape": [1, 1, 256, 64], "dtype": "float32", "quantization": {"dtype": "uint8", "min": -0.6599585147464977, "scale": 0.004489513705758488, "original_dtype": "float32"}}, {"name": "StatefulPartitionedCall/functional_1_1/conv2_block2_1_bn_1/batchnorm/sub", "shape": [1, 1, 1, 64], "dtype": "float32", "quantization": {"dtype": "uint8", "min": -3.070242848115809, "scale": 0.03198169633453968, "original_dtype": "float32"}}, {"name": "StatefulPartitionedCall/functional_1_1/conv2_block2_2_conv_1/convolution/merged_input", "shape": [3, 3, 64, 64], "dtype": "float32", "quantization": {"dtype": "uint8", "min": -0.4438599628560683, "scale": 0.004109814470889522, "original_dtype": "float32"}}, {"name": "StatefulPartitionedCall/functional_1_1/conv2_block2_2_bn_1/batchnorm/sub", "shape": [1, 1, 1, 64], "dtype": "float32", "quantization": {"dtype": "uint8", "min": -2.767108642353731, "scale": 0.019624883988324335, "original_dtype": "float32"}}, {"name": "StatefulPartitionedCall/functional_1_1/conv2_block2_3_conv_1/convolution/merged_input", "shape": [1, 1, 64, 256], "dtype": "float32", "quantization": {"dtype": "uint8", "min": -1.1103364930433386, "scale": 0.010003031468858906, "original_dtype": "float32"}}, {"name": "StatefulPartitionedCall/functional_1_1/conv2_block2_3_bn_1/batchnorm/sub", "shape": [1, 1, 1, 256], "dtype": "float32", "quantization": {"dtype": "uint8", "min": -5.0314950980392155, "scale": 0.03930855545343137, "original_dtype": "float32"}}, {"name": "StatefulPartitionedCall/functional_1_1/conv2_block3_1_conv_1/convolution/merged_input", "shape": [1, 1, 256, 64], "dtype": "float32", "quantization": {"dtype": "uint8", "min": -0.28490168136708877, "scale": 0.0024991375558516557, "original_dtype": "float32"}}, {"name": "StatefulPartitionedCall/functional_1_1/conv2_block3_1_bn_1/batchnorm/sub", "shape": [1, 1, 1, 64], "dtype": "float32", "quantization": {"dtype": "uint8", "min": -4.695629496667899, "scale": 0.02623256702049106, "original_dtype": "float32"}}, {"name": "StatefulPartitionedCall/functional_1_1/conv2_block3_2_conv_1/convolution/merged_input", "shape": [3, 3, 64, 64], "dtype": "float32", "quantization": {"dtype": "uint8", "min": -0.411858008889591, "scale": 0.0032176406944499298, "original_dtype": "float32"}}, {"name": "StatefulPartitionedCall/functional_1_1/conv2_block3_2_bn_1/batchnorm/sub", "shape": [1, 1, 1, 64], "dtype": "float32", "quantization": {"dtype": "uint8", "min": -0.7522704180549172, "scale": 0.011754225282108082, "original_dtype": "float32"}}, {"name": "StatefulPartitionedCall/functional_1_1/conv2_block3_3_conv_1/convolution/merged_input", "shape": [1, 1, 64, 256], "dtype": "float32", "quantization": {"dtype": "uint8", "min": -0.8996300192440256, "scale": 0.00832990758559283, "original_dtype": "float32"}}, {"name": "StatefulPartitionedCall/functional_1_1/conv2_block3_3_bn_1/batchnorm/sub", "shape": [1, 1, 1, 256], "dtype": "float32", "quantization": {"dtype": "uint8", "min": -3.4123420864928002, "scale": 0.02820117426853554, "original_dtype": "float32"}}, {"name": "StatefulPartitionedCall/functional_1_1/conv3_block1_1_conv_1/convolution/merged_input", "shape": [1, 1, 256, 128], "dtype": "float32", "quantization": {"dtype": "uint8", "min": -0.45661121536703675, "scale": 0.003004021153730505, "original_dtype": "float32"}}, {"name": "StatefulPartitionedCall/functional_1_1/conv3_block1_1_bn_1/batchnorm/sub", "shape": [1, 1, 1, 128], "dtype": "float32", "quantization": {"dtype": "uint8", "min": -3.2323649088541666, "scale": 0.025252850850423177, "original_dtype": "float32"}}, {"name": "StatefulPartitionedCall/functional_1_1/conv3_block1_2_conv_1/convolution/merged_input", "shape": [3, 3, 128, 128], "dtype": "float32", "quantization": {"dtype": "uint8", "min": -0.3974541369606467, "scale": 0.003081039821400362, "original_dtype": "float32"}}, {"name": "StatefulPartitionedCall/functional_1_1/conv3_block1_2_bn_1/batchnorm/sub", "shape": [1, 1, 1, 128], "dtype": "float32", "quantization": {"dtype": "uint8", "min": -2.999349257525276, "scale": 0.028839896706973806, "original_dtype": "float32"}}, {"name": "StatefulPartitionedCall/functional_1_1/conv3_block1_3_conv_1/convolution/merged_input", "shape": [1, 1, 128, 512], "dtype": "float32", "quantization": {"dtype": "uint8", "min": -1.7474303797179578, "scale": 0.014441573386098824, "original_dtype": "float32"}}, {"name": "StatefulPartitionedCall/functional_1_1/conv3_block1_3_bn_1/batchnorm/sub", "shape": [1, 1, 1, 512], "dtype": "float32", "quantization": {"dtype": "uint8", "min": -4.754061541837805, "scale": 0.03444972131766525, "original_dtype": "float32"}}, {"name": "StatefulPartitionedCall/functional_1_1/conv3_block2_1_conv_1/convolution/merged_input", "shape": [1, 1, 512, 128], "dtype": "float32", "quantization": {"dtype": "uint8", "min": -0.1710023581981659, "scale": 0.0016764937078251557, "original_dtype": "float32"}}, {"name": "StatefulPartitionedCall/functional_1_1/conv3_block2_1_bn_1/batchnorm/sub", "shape": [1, 1, 1, 128], "dtype": "float32", "quantization": {"dtype": "uint8", "min": -3.3464408014334888, "scale": 0.020159281936346318, "original_dtype": "float32"}}, {"name": "StatefulPartitionedCall/functional_1_1/conv3_block2_2_conv_1/convolution/merged_input", "shape": [3, 3, 128, 128], "dtype": "float32", "quantization": {"dtype": "uint8", "min": -0.32136153987809724, "scale": 0.0028692994631972966, "original_dtype": "float32"}}, {"name": "StatefulPartitionedCall/functional_1_1/conv3_block2_2_bn_1/batchnorm/sub", "shape": [1, 1, 1, 128], "dtype": "float32", "quantization": {"dtype": "uint8", "min": -2.281016262839822, "scale": 0.016529103353911754, "original_dtype": "float32"}}, {"name": "StatefulPartitionedCall/functional_1_1/conv3_block2_3_conv_1/convolution/merged_input", "shape": [1, 1, 128, 512], "dtype": "float32", "quantization": {"dtype": "uint8", "min": -1.4261650861478319, "scale": 0.014552704960692163, "original_dtype": "float32"}}, {"name": "StatefulPartitionedCall/functional_1_1/conv3_block2_3_bn_1/batchnorm/sub", "shape": [1, 1, 1, 512], "dtype": "float32", "quantization": {"dtype": "uint8", "min": -2.1725911757525274, "scale": 0.022631158080755494, "original_dtype": "float32"}}, {"name": "StatefulPartitionedCall/functional_1_1/conv3_block3_1_conv_1/convolution/merged_input", "shape": [1, 1, 512, 128], "dtype": "float32", "quantization": {"dtype": "uint8", "min": -0.16053244261180652, "scale": 0.004116216477225808, "original_dtype": "float32"}}, {"name": "StatefulPartitionedCall/functional_1_1/conv3_block3_1_bn_1/batchnorm/sub", "shape": [1, 1, 1, 128], "dtype": "float32", "quantization": {"dtype": "uint8", "min": -3.2588612836949964, "scale": 0.022019332997939164, "original_dtype": "float32"}}, {"name": "StatefulPartitionedCall/functional_1_1/conv3_block3_2_conv_1/convolution/merged_input", "shape": [3, 3, 128, 128], "dtype": "float32", "quantization": {"dtype": "uint8", "min": -0.7471583506640265, "scale": 0.008588027019126742, "original_dtype": "float32"}}, {"name": "StatefulPartitionedCall/functional_1_1/conv3_block3_2_bn_1/batchnorm/sub", "shape": [1, 1, 1, 128], "dtype": "float32", "quantization": {"dtype": "uint8", "min": -6.10944851286271, "scale": 0.029514244023491353, "original_dtype": "float32"}}, {"name": "StatefulPartitionedCall/functional_1_1/conv3_block3_3_conv_1/convolution/merged_input", "shape": [1, 1, 128, 512], "dtype": "float32", "quantization": {"dtype": "uint8", "min": -1.9203493267882104, "scale": 0.013716780905630074, "original_dtype": "float32"}}, {"name": "StatefulPartitionedCall/functional_1_1/conv3_block3_3_bn_1/batchnorm/sub", "shape": [1, 1, 1, 512], "dtype": "float32", "quantization": {"dtype": "uint8", "min": -2.376150222853118, "scale": 0.022207011428533815, "original_dtype": "float32"}}, {"name": "StatefulPartitionedCall/functional_1_1/conv3_block4_1_conv_1/convolution/merged_input", "shape": [1, 1, 512, 128], "dtype": "float32", "quantization": {"dtype": "uint8", "min": -0.44082873288322894, "scale": 0.003800247697269215, "original_dtype": "float32"}}, {"name": "StatefulPartitionedCall/functional_1_1/conv3_block4_1_bn_1/batchnorm/sub", "shape": [1, 1, 1, 128], "dtype": "float32", "quantization": {"dtype": "uint8", "min": -3.4889200771556177, "scale": 0.017620808470482918, "original_dtype": "float32"}}, {"name": "StatefulPartitionedCall/functional_1_1/conv3_block4_2_conv_1/convolution/merged_input", "shape": [3, 3, 128, 128], "dtype": "float32", "quantization": {"dtype": "uint8", "min": -0.30237457892474007, "scale": 0.00277407870573156, "original_dtype": "float32"}}, {"name": "StatefulPartitionedCall/functional_1_1/conv3_block4_2_bn_1/batchnorm/sub", "shape": [1, 1, 1, 128], "dtype": "float32", "quantization": {"dtype": "uint8", "min": -1.2679912567138671, "scale": 0.01243128683052811, "original_dtype": "float32"}}, {"name": "StatefulPartitionedCall/functional_1_1/conv3_block4_3_conv_1/convolution/merged_input", "shape": [1, 1, 128, 512], "dtype": "float32", "quantization": {"dtype": "uint8", "min": -0.9784837325414021, "scale": 0.008222552374297497, "original_dtype": "float32"}}, {"name": "StatefulPartitionedCall/functional_1_1/conv3_block4_3_bn_1/batchnorm/sub", "shape": [1, 1, 1, 512], "dtype": "float32", "quantization": {"dtype": "uint8", "min": -3.150738547830021, "scale": 0.026256154565250173, "original_dtype": "float32"}}, {"name": "StatefulPartitionedCall/functional_1_1/conv4_block1_1_conv_1/convolution/merged_input", "shape": [1, 1, 512, 256], "dtype": "float32", "quantization": {"dtype": "uint8", "min": -0.25335392998714074, "scale": 0.002945975930083032, "original_dtype": "float32"}}, {"name": "StatefulPartitionedCall/functional_1_1/conv4_block1_1_bn_1/batchnorm/sub", "shape": [1, 1, 1, 256], "dtype": "float32", "quantization": {"dtype": "uint8", "min": -2.504467603272083, "scale": 0.01751375946344114, "original_dtype": "float32"}}, {"name": "StatefulPartitionedCall/functional_1_1/conv4_block1_2_conv_1/convolution/merged_input", "shape": [3, 3, 256, 256], "dtype": "float32", "quantization": {"dtype": "uint8", "min": -0.21277492788492464, "scale": 0.001882963963583404, "original_dtype": "float32"}}, {"name": "StatefulPartitionedCall/functional_1_1/conv4_block1_2_bn_1/batchnorm/sub", "shape": [1, 1, 1, 256], "dtype": "float32", "quantization": {"dtype": "uint8", "min": -3.5179640826056984, "scale": 0.02748409439535702, "original_dtype": "float32"}}, {"name": "StatefulPartitionedCall/functional_1_1/conv4_block1_3_conv_1/convolution/merged_input", "shape": [1, 1, 256, 1024], "dtype": "float32", "quantization": {"dtype": "uint8", "min": -1.6778351465861001, "scale": 0.012337023136662502, "original_dtype": "float32"}}, {"name": "StatefulPartitionedCall/functional_1_1/conv4_block1_3_bn_1/batchnorm/sub", "shape": [1, 1, 1, 1024], "dtype": "float32", "quantization": {"dtype": "uint8", "min": -2.5698471695769065, "scale": 0.026493269789452645, "original_dtype": "float32"}}, {"name": "StatefulPartitionedCall/functional_1_1/conv4_block2_1_conv_1/convolution/merged_input", "shape": [1, 1, 1024, 256], "dtype": "float32", "quantization": {"dtype": "uint8", "min": -0.1599059653048422, "scale": 0.002160891423038408, "original_dtype": "float32"}}, {"name": "StatefulPartitionedCall/functional_1_1/conv4_block2_1_bn_1/batchnorm/sub", "shape": [1, 1, 1, 256], "dtype": "float32", "quantization": {"dtype": "uint8", "min": -2.628603766946232, "scale": 0.021905031391218598, "original_dtype": "float32"}}, {"name": "StatefulPartitionedCall/functional_1_1/conv4_block2_2_conv_1/convolution/merged_input", "shape": [3, 3, 256, 256], "dtype": "float32", "quantization": {"dtype": "uint8", "min": -0.6218116891150381, "scale": 0.006218116891150381, "original_dtype": "float32"}}, {"name": "StatefulPartitionedCall/functional_1_1/conv4_block2_2_bn_1/batchnorm/sub", "shape": [1, 1, 1, 256], "dtype": "float32", "quantization": {"dtype": "uint8", "min": -2.3745500153186274, "scale": 0.021201339422487746, "original_dtype": "float32"}}, {"name": "StatefulPartitionedCall/functional_1_1/conv4_block2_3_conv_1/convolution/merged_input", "shape": [1, 1, 256, 1024], "dtype": "float32", "quantization": {"dtype": "uint8", "min": -1.8814939667196835, "scale": 0.013343928841983571, "original_dtype": "float32"}}, {"name": "StatefulPartitionedCall/functional_1_1/conv4_block2_3_bn_1/batchnorm/sub", "shape": [1, 1, 1, 1024], "dtype": "float32", "quantization": {"dtype": "uint8", "min": -2.4657425095053283, "scale": 0.019114283019421148, "original_dtype": "float32"}}, {"name": "StatefulPartitionedCall/functional_1_1/conv4_block3_1_conv_1/convolution/merged_input", "shape": [1, 1, 1024, 256], "dtype": "float32", "quantization": {"dtype": "uint8", "min": -0.34379052695106055, "scale": 0.002604473689023186, "original_dtype": "float32"}}, {"name": "StatefulPartitionedCall/functional_1_1/conv4_block3_1_bn_1/batchnorm/sub", "shape": [1, 1, 1, 256], "dtype": "float32", "quantization": {"dtype": "uint8", "min": -3.1071817594416, "scale": 0.017554699205884747, "original_dtype": "float32"}}, {"name": "StatefulPartitionedCall/functional_1_1/conv4_block3_2_conv_1/convolution/merged_input", "shape": [3, 3, 256, 256], "dtype": "float32", "quantization": {"dtype": "uint8", "min": -0.506086542559605, "scale": 0.005561390577578077, "original_dtype": "float32"}}, {"name": "StatefulPartitionedCall/functional_1_1/conv4_block3_2_bn_1/batchnorm/sub", "shape": [1, 1, 1, 256], "dtype": "float32", "quantization": {"dtype": "uint8", "min": -2.5506780437394685, "scale": 0.016780776603549135, "original_dtype": "float32"}}, {"name": "StatefulPartitionedCall/functional_1_1/conv4_block3_3_conv_1/convolution/merged_input", "shape": [1, 1, 256, 1024], "dtype": "float32", "quantization": {"dtype": "uint8", "min": -0.8400656354193593, "scale": 0.009768205063015806, "original_dtype": "float32"}}, {"name": "StatefulPartitionedCall/functional_1_1/conv4_block3_3_bn_1/batchnorm/sub", "shape": [1, 1, 1, 1024], "dtype": "float32", "quantization": {"dtype": "uint8", "min": -2.2886982679367067, "scale": 0.014958812208736644, "original_dtype": "float32"}}, {"name": "StatefulPartitionedCall/functional_1_1/conv4_block4_1_conv_1/convolution/merged_input", "shape": [1, 1, 1024, 256], "dtype": "float32", "quantization": {"dtype": "uint8", "min": -0.16041227228501265, "scale": 0.0022279482261807313, "original_dtype": "float32"}}, {"name": "StatefulPartitionedCall/functional_1_1/conv4_block4_1_bn_1/batchnorm/sub", "shape": [1, 1, 1, 256], "dtype": "float32", "quantization": {"dtype": "uint8", "min": -2.4445814291636148, "scale": 0.01437989075978597, "original_dtype": "float32"}}, {"name": "StatefulPartitionedCall/functional_1_1/conv4_block4_2_conv_1/convolution/merged_input", "shape": [3, 3, 256, 256], "dtype": "float32", "quantization": {"dtype": "uint8", "min": -0.5866168576128342, "scale": 0.004769242744819791, "original_dtype": "float32"}}, {"name": "StatefulPartitionedCall/functional_1_1/conv4_block4_2_bn_1/batchnorm/sub", "shape": [1, 1, 1, 256], "dtype": "float32", "quantization": {"dtype": "uint8", "min": -3.3588459865719664, "scale": 0.018869921272876216, "original_dtype": "float32"}}, {"name": "StatefulPartitionedCall/functional_1_1/conv4_block4_3_conv_1/convolution/merged_input", "shape": [1, 1, 256, 1024], "dtype": "float32", "quantization": {"dtype": "uint8", "min": -1.2903479183421416, "scale": 0.011520963556626265, "original_dtype": "float32"}}, {"name": "StatefulPartitionedCall/functional_1_1/conv4_block4_3_bn_1/batchnorm/sub", "shape": [1, 1, 1, 1024], "dtype": "float32", "quantization": {"dtype": "uint8", "min": -2.3274133415783154, "scale": 0.015413333387935864, "original_dtype": "float32"}}, {"name": "StatefulPartitionedCall/functional_1_1/conv4_block5_1_conv_1/convolution/merged_input", "shape": [1, 1, 1024, 256], "dtype": "float32", "quantization": {"dtype": "uint8", "min": -0.19395552277565004, "scale": 0.0024551331996917726, "original_dtype": "float32"}}, {"name": "StatefulPartitionedCall/functional_1_1/conv4_block5_1_bn_1/batchnorm/sub", "shape": [1, 1, 1, 256], "dtype": "float32", "quantization": {"dtype": "uint8", "min": -1.865778014239143, "scale": 0.012956791765549603, "original_dtype": "float32"}}, {"name": "StatefulPartitionedCall/functional_1_1/conv4_block5_2_conv_1/convolution/merged_input", "shape": [3, 3, 256, 256], "dtype": "float32", "quantization": {"dtype": "uint8", "min": -0.6095152181737563, "scale": 0.005079293484781302, "original_dtype": "float32"}}, {"name": "StatefulPartitionedCall/functional_1_1/conv4_block5_2_bn_1/batchnorm/sub", "shape": [1, 1, 1, 256], "dtype": "float32", "quantization": {"dtype": "uint8", "min": -2.7376252132303573, "scale": 0.015125001178068273, "original_dtype": "float32"}}, {"name": "StatefulPartitionedCall/functional_1_1/conv4_block5_3_conv_1/convolution/merged_input", "shape": [1, 1, 256, 1024], "dtype": "float32", "quantization": {"dtype": "uint8", "min": -0.842110900551665, "scale": 0.008337731688630346, "original_dtype": "float32"}}, {"name": "StatefulPartitionedCall/functional_1_1/conv4_block5_3_bn_1/batchnorm/sub", "shape": [1, 1, 1, 1024], "dtype": "float32", "quantization": {"dtype": "uint8", "min": -5.686091292138193, "scale": 0.029010669857847924, "original_dtype": "float32"}}, {"name": "StatefulPartitionedCall/functional_1_1/conv4_block6_1_conv_1/convolution/merged_input", "shape": [1, 1, 1024, 256], "dtype": "float32", "quantization": {"dtype": "uint8", "min": -0.19391740537157248, "scale": 0.002423967567144656, "original_dtype": "float32"}}, {"name": "StatefulPartitionedCall/functional_1_1/conv4_block6_1_bn_1/batchnorm/sub", "shape": [1, 1, 1, 256], "dtype": "float32", "quantization": {"dtype": "uint8", "min": -1.621886724584243, "scale": 0.00965408764633478, "original_dtype": "float32"}}, {"name": "StatefulPartitionedCall/functional_1_1/conv4_block6_2_conv_1/convolution/merged_input", "shape": [3, 3, 256, 256], "dtype": "float32", "quantization": {"dtype": "uint8", "min": -0.5074823603910559, "scale": 0.004059858883128447, "original_dtype": "float32"}}, {"name": "StatefulPartitionedCall/functional_1_1/conv4_block6_2_bn_1/batchnorm/sub", "shape": [1, 1, 1, 256], "dtype": "float32", "quantization": {"dtype": "uint8", "min": -2.4502256655225563, "scale": 0.01591055626962699, "original_dtype": "float32"}}, {"name": "StatefulPartitionedCall/functional_1_1/conv4_block6_3_conv_1/convolution/merged_input", "shape": [1, 1, 256, 1024], "dtype": "float32", "quantization": {"dtype": "uint8", "min": -0.5985852059196023, "scale": 0.007674169306661568, "original_dtype": "float32"}}, {"name": "StatefulPartitionedCall/functional_1_1/conv4_block6_3_bn_1/batchnorm/sub", "shape": [1, 1, 1, 1024], "dtype": "float32", "quantization": {"dtype": "uint8", "min": -2.986920295977125, "scale": 0.02059945031708362, "original_dtype": "float32"}}, {"name": "StatefulPartitionedCall/functional_1_1/conv5_block1_1_conv_1/convolution/merged_input", "shape": [1, 1, 1024, 512], "dtype": "float32", "quantization": {"dtype": "uint8", "min": -0.18438100113588224, "scale": 0.0020486777903986914, "original_dtype": "float32"}}, {"name": "StatefulPartitionedCall/functional_1_1/conv5_block1_1_bn_1/batchnorm/sub", "shape": [1, 1, 1, 512], "dtype": "float32", "quantization": {"dtype": "uint8", "min": -2.367915246065925, "scale": 0.016108266980040305, "original_dtype": "float32"}}, {"name": "StatefulPartitionedCall/functional_1_1/conv5_block1_2_conv_1/convolution/merged_input", "shape": [3, 3, 512, 512], "dtype": "float32", "quantization": {"dtype": "uint8", "min": -0.23215171607101664, "scale": 0.003095356214280222, "original_dtype": "float32"}}, {"name": "StatefulPartitionedCall/functional_1_1/conv5_block1_2_bn_1/batchnorm/sub", "shape": [1, 1, 1, 512], "dtype": "float32", "quantization": {"dtype": "uint8", "min": -1.9556184656479778, "scale": 0.016296820547066482, "original_dtype": "float32"}}, {"name": "StatefulPartitionedCall/functional_1_1/conv5_block1_3_conv_1/convolution/merged_input", "shape": [1, 1, 512, 2048], "dtype": "float32", "quantization": {"dtype": "uint8", "min": -2.6501181209788602, "scale": 0.02880563174977022, "original_dtype": "float32"}}, {"name": "StatefulPartitionedCall/functional_1_1/conv5_block1_3_bn_1/batchnorm/sub", "shape": [1, 1, 1, 2048], "dtype": "float32", "quantization": {"dtype": "uint8", "min": -6.997490770676556, "scale": 0.046649938471177044, "original_dtype": "float32"}}, {"name": "StatefulPartitionedCall/functional_1_1/conv5_block2_1_conv_1/convolution/merged_input", "shape": [1, 1, 2048, 512], "dtype": "float32", "quantization": {"dtype": "uint8", "min": -0.07176385977688958, "scale": 0.0007800419540966258, "original_dtype": "float32"}}, {"name": "StatefulPartitionedCall/functional_1_1/conv5_block2_1_bn_1/batchnorm/sub", "shape": [1, 1, 1, 512], "dtype": "float32", "quantization": {"dtype": "uint8", "min": -3.220837994182811, "scale": 0.018835309907501818, "original_dtype": "float32"}}, {"name": "StatefulPartitionedCall/functional_1_1/conv5_block2_2_conv_1/convolution/merged_input", "shape": [3, 3, 512, 512], "dtype": "float32", "quantization": {"dtype": "uint8", "min": -0.4827348543148415, "scale": 0.005135477173562143, "original_dtype": "float32"}}, {"name": "StatefulPartitionedCall/functional_1_1/conv5_block2_2_bn_1/batchnorm/sub", "shape": [1, 1, 1, 512], "dtype": "float32", "quantization": {"dtype": "uint8", "min": -2.5746633894303264, "scale": 0.015892983885372386, "original_dtype": "float32"}}, {"name": "StatefulPartitionedCall/functional_1_1/conv5_block2_3_conv_1/convolution/merged_input", "shape": [1, 1, 512, 2048], "dtype": "float32", "quantization": {"dtype": "uint8", "min": -3.1027808694278494, "scale": 0.026294753130744485, "original_dtype": "float32"}}, {"name": "StatefulPartitionedCall/functional_1_1/conv5_block2_3_bn_1/batchnorm/sub", "shape": [1, 1, 1, 2048], "dtype": "float32", "quantization": {"dtype": "uint8", "min": -8.451703135172526, "scale": 0.05091387430826823, "original_dtype": "float32"}}, {"name": "StatefulPartitionedCall/functional_1_1/conv5_block3_1_conv_1/convolution/merged_input", "shape": [1, 1, 2048, 512], "dtype": "float32", "quantization": {"dtype": "uint8", "min": -0.05716869760962094, "scale": 0.0007146087201202617, "original_dtype": "float32"}}, {"name": "StatefulPartitionedCall/functional_1_1/conv5_block3_1_bn_1/batchnorm/sub", "shape": [1, 1, 1, 512], "dtype": "float32", "quantization": {"dtype": "uint8", "min": -2.7322651662078554, "scale": 0.012767594234616148, "original_dtype": "float32"}}, {"name": "StatefulPartitionedCall/functional_1_1/conv5_block3_2_conv_1/convolution/merged_input", "shape": [3, 3, 512, 512], "dtype": "float32", "quantization": {"dtype": "uint8", "min": -0.3859874578083263, "scale": 0.0030633925222883036, "original_dtype": "float32"}}, {"name": "StatefulPartitionedCall/functional_1_1/conv5_block3_2_bn_1/batchnorm/sub", "shape": [1, 1, 1, 512], "dtype": "float32", "quantization": {"dtype": "uint8", "min": -2.3935189714618756, "scale": 0.014418788984710095, "original_dtype": "float32"}}, {"name": "StatefulPartitionedCall/functional_1_1/conv5_block3_3_conv_1/convolution/merged_input", "shape": [1, 1, 512, 2048], "dtype": "float32", "quantization": {"dtype": "uint8", "min": -2.3634872015784767, "scale": 0.03069463898153866, "original_dtype": "float32"}}, {"name": "StatefulPartitionedCall/functional_1_1/conv5_block3_3_bn_1/batchnorm/sub", "shape": [1, 1, 1, 2048], "dtype": "float32", "quantization": {"dtype": "uint8", "min": -5.002053166370766, "scale": 0.025917373919019514, "original_dtype": "float32"}}, {"name": "StatefulPartitionedCall/functional_1_1/global_average_pooling2d_1_1/Mean/reduction_indices", "shape": [2], "dtype": "int32"}, {"name": "StatefulPartitionedCall/functional_1_1/dense_2_1/Cast/ReadVariableOp", "shape": [2048, 128], "dtype": "float32", "quantization": {"dtype": "uint8", "min": -0.14229805913625979, "scale": 0.0012373744272718243, "original_dtype": "float32"}}, {"name": "StatefulPartitionedCall/functional_1_1/dense_2_1/BiasAdd/ReadVariableOp", "shape": [128], "dtype": "float32", "quantization": {"dtype": "uint8", "min": -0.0151412732899189, "scale": 0.00014844385578351862, "original_dtype": "float32"}}, {"name": "StatefulPartitionedCall/functional_1_1/dense_3_1/Cast/ReadVariableOp", "shape": [128, 1], "dtype": "float32", "quantization": {"dtype": "uint8", "min": -0.2176716907351625, "scale": 0.0017554168607674394, "original_dtype": "float32"}}, {"name": "StatefulPartitionedCall/functional_1_1/dense_3_1/Add/ReadVariableOp", "shape": [1], "dtype": "float32", "quantization": {"dtype": "uint8", "min": 0.01282405573874712, "scale": 1.0, "original_dtype": "float32"}}]}]}